Model.pth (torch, 197851 bytes, 20 tensors)

linear_1.weight f4 [256, 18]
0	0xbe29550c	-0.16536349
1	0xbe1c54cc	-0.15266722
2	0xbdacad36	-0.08431475
3	0xbdcae689	-0.09907252
4	0xbe27f0e3	-0.16400485
5	0x3e0ce011	0.1375735
6	0x3e273773	0.16329746
7	0xbdb8d600	-0.09025192
8	0xbba9b2b4	-0.005178774
9	0x3e34faba	0.1767377
10	0x3d30c757	0.043158855
11	0x3e220752	0.15823105
12	0xbe308e7c	-0.17241853
13	0xbd970028	-0.07373077
14	0xbe4f7b05	-0.20261772
15	0x3e427971	0.18991639
16	0x3d8014d7	0.06253975
17	0x3dff00dc	0.12451336
18	0xbdebf68e	-0.11521636
19	0x3dfef163	0.124483846
20	0xbe390522	-0.18068364
21	0xbe021786	-0.12704286
22	0x3d8546e5	0.06507663
23	0x3e4053ae	0.18781921
24	0x3e296589	0.16542639
25	0x3d5f0ffe	0.05445861
26	0x3da60dcf	0.081081025
27	0x3d5092a4	0.050921097
28	0x3d238d05	0.03992941
29	0xbd0acbde	-0.03388583
30	0xbdc82618	-0.09772891
31	0x3d6c156b	0.057637613
32	0x3e3d7098	0.18499982
33	0x3c3a23f1	0.011361108
34	0xbc64d81f	-0.013967543
35	0x3d98fce0	0.07470107
36	0x3d03bab5	0.03216048
37	0xbe3377e2	-0.175262
38	0x3e666988	0.22501194
39	0xbeb2855d	-0.34867373
40	0x3d8017d1	0.062545426
41	0x3e5a1c51	0.21299864
42	0x3d94d9a1	0.07268072
43	0x3cec7116	0.028862517
44	0xbe9b8af8	-0.30379462
45	0xbe8a7626	-0.27043265
46	0xbd945048	-0.07241875
47	0x3dde3f86	0.1085196
48	0x3e89708c	0.2684368
49	0xbecc0e78	-0.3985479
50	0xbe2bd9f4	-0.16782361
51	0xbe6c58bd	-0.23080726
52	0x3ea2a40f	0.31765792
53	0x3ccdca51	0.025120886
54	0x3cf5edaf	0.030020563
55	0x3e1e9a4e	0.1548855
56	0x3e07ce38	0.1326226
57	0x3da19c37	0.07891124
58	0x3e77422d	0.24146338
59	0xbd782ffd	-0.06059264
60	0xbebe9b18	-0.37227702
61	0xbea94304	-0.3305894
62	0x3e0a9726	0.13534221
63	0xbe718d3b	-0.23589031
64	0xbd40b665	-0.047048945
65	0x3db6b75f	0.08921694
66	0x3e7b571e	0.24544951
67	0xbe8a817f	-0.27051923
68	0xbd60df25	-0.054900307
69	0x3dd3cc07	0.103416495
70	0x3e73b52b	0.23799579
71	0x3d8a2a84	0.067463905
72	0x3d02eba1	0.031962994
73	0xbeb8b88f	-0.36078307
74	0x3e13395a	0.14377347
75	0xbee3f4f8	-0.44522834
76	0xbcab5df4	-0.020918824
77	0x3f010356	0.50395715
78	0xbef97933	-0.4872528
79	0xbebcaa91	-0.36848882
80	0xbe91c22b	-0.2846845
81	0xbde08db5	-0.109645285
82	0xbdc4fb93	-0.096182965
83	0x3e19241f	0.14955185
84	0x3ee634d3	0.44962177
85	0xbe1dd054	-0.15411502
86	0xbeed6e2e	-0.46373123
87	0xbe5db0ec	-0.21649522
88	0xbd00b27d	-0.03142022
89	0xbd45fa00	-0.04833412
90	0xbd0f8d04	-0.035046592
91	0x3e3ae654	0.18251926
92	0xbe5f7ac5	-0.21824177
93	0xbc75953e	-0.014989195
94	0xbdd78d9e	-0.10525058
95	0xbcd2ada0	-0.025717556
96	0xbe3a8b19	-0.18217124
97	0xbdf7ae29	-0.12093765
98	0x3df96ff2	0.12179555
99	0xbbca641e	-0.0061764857
100	0xbdf73a33	-0.120716475
101	0x3d9b2444	0.075752765
102	0xbe06ddee	-0.13170597
103	0xbe10ae05	-0.14128883
104	0xbe72c992	-0.23709705
105	0x3e588433	0.2114418
106	0xbe5b49c8	-0.21414864
107	0xbdf5976e	-0.119917735
108	0xbd2e5bdf	-0.042568084
109	0x3dc479b5	0.09593526
110	0xbccaadb0	-0.024741024
111	0xbebb2bd9	-0.3655689
112	0x3d329b0f	0.043604907
113	0x3e2591ae	0.16168854
114	0x3d2a8c0e	0.041637473
115	0xbe69ca1a	-0.22831002
116	0xbe291f32	-0.16515806
117	0xbdc32a1f	-0.09529518
118	0xbe563f9d	-0.20922704
119	0x3e413654	0.18868381
120	0x3e45e56f	0.19325803
121	0xbe2545ee	-0.16139957
122	0xbe210a81	-0.15726663
123	0xbe56f54a	-0.20992008
124	0xbcf04e07	-0.029334081
125	0xbe97793c	-0.29584682
126	0x3e16f650	0.14742398
127	0xbddc46d8	-0.107557
128	0xbe0184cb	-0.12648313
129	0x3d5d00a6	0.053955697
130	0xbde1ce88	-0.11025721
131	0x3cafbb89	0.021451728
132	0x3e3c6e5f	0.18401478
133	0xbddf7dde	-0.10912679
134	0x3e83c557	0.25736496
135	0x3df562a1	0.119817026
136	0x3d90f1a0	0.07077336
137	0xbcc6fe4a	-0.024291176
138	0x3e5c9fa5	0.21545275
139	0xb8d98e30	-0.00010373851
140	0x3d9303a8	0.07178432
141	0xbe387244	-0.18012339
142	0x3e22332b	0.15839832
143	0xbe36c6e4	-0.17849308
144	0x3d93709c	0.07199213
145	0xbd809af5	-0.06279556
146	0xbde08ba1	-0.10964132
147	0xbea8405a	-0.32861596
148	0x3e92910b	0.28626284
149	0xbd321fde	-0.043487422
150	0x3dc1c99d	0.09462283
151	0xbdee8646	-0.116467044
152	0xbc198901	-0.009371043
153	0xbd859e15	-0.065242924
154	0xbda2496a	-0.07924159
155	0xbdfae279	-0.122502275
156	0xbcfb578d	-0.030681396
157	0xbcec9148	-0.02887787
158	0xbdda052b	-0.10645517
159	0xbde80587	-0.11329179
160	0x3e825946	0.25458735
161	0xbe22cabd	-0.15897651
162	0xbcd45a04	-0.025921829
163	0xbde92f72	-0.113860026
164	0xbe507249	-0.20356096
165	0x3dbd5e07	0.0924645
166	0x3c841d1a	0.016127158
167	0xbe2225b4	-0.15834695
168	0x3e0abda5	0.13548906
169	0x3de65679	0.11246962
170	0x3e0d2b8f	0.13786148
171	0x3e3c7c10	0.18406701
172	0x3e6599c4	0.22421938
173	0xbe1df893	-0.15426855
174	0xbea7cf0a	-0.32775146
175	0x3d0b50f2	0.034012742
176	0xbd3e8be1	-0.046520118
177	0x3d252440	0.040317774
178	0xbe9c40dd	-0.30518237
179	0x3e3c2623	0.18373923
180	0x3d28ac9c	0.041180238
181	0x3dfb22d3	0.122625016
182	0x3d061ec0	0.03274417
183	0xbdd454df	-0.103677504
184	0xbe31028d	-0.1728613
185	0x3cbc89ef	0.02301499
186	0x3c074dce	0.008258296
187	0x3e407d2b	0.18797748
188	0xbcd09afe	-0.025464531
189	0x3d4d8161	0.050172213
190	0x3b00139b	0.0019542936
191	0x3dbedcf0	0.09319484
192	0xbe020b62	-0.12699655
193	0x3dead1de	0.1146581
194	0x3e82f308	0.25576043
195	0xbccc05b2	-0.02490506
196	0xbd058d34	-0.032605365
197	0xbc9a735c	-0.018853836
198	0xbd009f94	-0.031402186
199	0xbde90915	-0.113786854
200	0x3ddbbb24	0.107290536
201	0xbd0ee6f8	-0.034888238
202	0xbd2ef208	-0.042711288
203	0x3d874310	0.06604588
204	0xbe14f522	-0.14546636
205	0x3e7a6d8d	0.24455853
206	0xbd69a84d	-0.05704527
207	0xbdef2ad5	-0.116780914
208	0x3c6bc75b	0.014390792
209	0xbe2a02fd	-0.16602702
210	0xbe9314af	-0.28726718
211	0xbdb39a43	-0.087696575
212	0x3e4b62f9	0.19861974
213	0x3e76de4f	0.24108241
214	0xbd45f807	-0.04833224
215	0x3d20561a	0.039144613
216	0x3c9fbf5f	0.019500433
217	0x3daa96fb	0.083295785
218	0x3dc9a283	0.0984545
219	0xbe9d1f8e	-0.30688137
220	0xbd948665	-0.07252196
221	0x3e24b34a	0.16084018
222	0xbe23e75c	-0.16006225
223	0xbd70fe39	-0.058836196
224	0xbea7376c	-0.3265947
225	0xbe5cc796	-0.21560511
226	0xbe8cb8d8	-0.27484775
227	0x3d87b16d	0.06625638
228	0x3e88b812	0.26702935
229	0xbe90b217	-0.28260872
230	0xbc9a848c	-0.018862031
231	0x3ce4061d	0.027834946
232	0x3e88b59c	0.26701057
233	0xbdf4e87c	-0.119584054
234	0xbd01f999	-0.031732175
235	0xbd4751d0	-0.048662007
236	0x3b865a50	0.0041001216
237	0xbe5c0548	-0.2148639
238	0x3e8f809e	0.28027815
239	0xbd643400	-0.055713654
240	0xbeab5403	-0.33462533
241	0x3cde16c1	0.02711046
242	0xbdaa8779	-0.083266206
243	0xbece774b	-0.40325388
244	0xbd46dade	-0.04854857
245	0x3e76e241	0.24109747
246	0x3e1cf836	0.1532906
247	0xbe7cace1	-0.24675323
248	0x3c961304	0.018319614
249	0x3e0e7e31	0.13915326
250	0x3e139460	0.1441207
251	0xbeb09df5	-0.34495512
252	0x3cb1bb6c	0.021695815
253	0x3ded68b0	0.11592233
254	0xbf0a8a75	-0.5411752
255	0x3ea2db52	0.31807953

linear_1.bias f4 [256]
0	0x3e5202e4	0.20508915
1	0x3dcfb0cc	0.10141143
2	0xbe202d34	-0.15642244
3	0xbd13d703	-0.036093723
4	0x3e46e350	0.1942265
5	0x3e3fa9ab	0.18717067
6	0x3e2b05c6	0.16701421
7	0xbe43f677	-0.19136988
8	0xbdcc7b74	-0.09984484
9	0xbe0a3d7c	-0.13500017
10	0x3d1d79e0	0.038446307
11	0xbcd7730d	-0.026299978
12	0x3e625bdd	0.22105356
13	0x3e325486	0.17415056
14	0xbe1a0904	-0.15042502
15	0xbe4850a1	-0.19562007
16	0x3dde96b8	0.10868591
17	0xbd60143f	-0.05470681
18	0x3e418a3c	0.18900388
19	0x3e4bff5e	0.19921634
20	0x3e0ae812	0.1356509
21	0x3e69f014	0.22845489
22	0x3e27e9a8	0.16397727
23	0x3d15552d	0.036458183
24	0x3d9cb9fe	0.07652663
25	0x3e5929a6	0.21207294
26	0xbddbc794	-0.10731426
27	0xbd8a0ebf	-0.06741094
28	0xbe3fd504	-0.18733603
29	0x3d031382	0.032001026
30	0x3e4c156c	0.19930047
31	0x3e5b0a4c	0.21390647
32	0x3de7515b	0.11294814
33	0xbe28137b	-0.16413681
34	0x3cc9acdc	0.024618559
35	0xbc3682db	-0.011139597
36	0x3e280652	0.16408661
37	0x3c561314	0.013066072
38	0x3e1b0866	0.15139922
39	0x3e22a8ea	0.15884748
40	0x3df699bb	0.120410405
41	0x3ce0c630	0.027438253
42	0x3e6f7d76	0.23387703
43	0x3dfe10c0	0.124055386
44	0xbc1637c0	-0.009168565
45	0xbe510611	-0.2041247
46	0x3d8aaa8f	0.06770813
47	0xbdce2cb6	-0.10067122
48	0x3c652158	0.013985001
49	0x3e1d9dba	0.15392199
50	0xbd3ee109	-0.04660133
51	0xbc2a0e1d	-0.010379341
52	0xbdcd025a	-0.10010214
53	0x3d84ccc1	0.06484366
54	0x3d98e1e2	0.07464959
55	0xbde3dd52	-0.11126198
56	0xbe097ef6	-0.13427338
57	0xbe29983f	-0.16561984
58	0x3ce82803	0.028339392
59	0xbdfcc340	-0.123419285
60	0x3cbd38a9	0.023098307
61	0x3cd8d1df	0.026467262
62	0xbe071c33	-0.13194351
63	0x3de794b5	0.113076605
64	0xbcd6cab5	-0.026219705
65	0x3d2deeb5	0.042463977
66	0x3e55b0ad	0.20868178
67	0x3e07a696	0.13247141
68	0x3e26ddbc	0.16295522
69	0xbcb44ec7	-0.02201022
70	0xbe6724a9	-0.22572578
71	0xbcc49247	-0.023995532
72	0xbd970144	-0.07373288
73	0x3e6c3b95	0.23069604
74	0x3e412484	0.18861586
75	0xbd8d4480	-0.06897831
76	0x3d8a0715	0.06739632
77	0x3e6ac46b	0.2292649
78	0xbc7a6f5a	-0.015285337
79	0xbe38613e	-0.18005845
80	0xbdd13da3	-0.102168344
81	0xbdbfc8aa	-0.093644455
82	0x3db536a2	0.08848311
83	0x3e5f703b	0.21820156
84	0xbaf26335	-0.0018492701
85	0x3e31d555	0.17366536
86	0xbe1bfa55	-0.15232213
87	0xbe648ca1	-0.2231927
88	0x3dd6e1e9	0.10492308
89	0xbd99b841	-0.07505847
90	0xbd384bb7	-0.044994082
91	0x3e4ac6bd	0.19802375
92	0xbe201ab8	-0.15635192
93	0xbe0a2923	-0.13492255
94	0xbe28adcc	-0.16472548
95	0xbe0e2be2	-0.13883927
96	0xbcab45f8	-0.020907387
97	0xbd98937e	-0.07450007
98	0xbd789635	-0.060690124
99	0xbdc6927f	-0.09695911
100	0x3e60a6b1	0.21938588
101	0x3d9640f6	0.07336609
102	0x3e1eefbd	0.1552114
103	0x3cde6e0b	0.027152082
104	0xbd9bdda7	-0.07610636
105	0x3da7e2ed	0.081975795
106	0xbe1a3526	-0.15059337
107	0xbe4fe0b1	-0.20300557
108	0x3e5389a3	0.20657973
109	0xbe495d5e	-0.19664523
110	0xbc109694	-0.008824963
111	0xbe26b26d	-0.16279002
112	0x3e2d21c7	0.16907416
113	0x3e226fae	0.15862915
114	0xbe0201f8	-0.12696064
115	0xbe50cf24	-0.20391518
116	0x3ca6fb1d	0.020383412
117	0xbe0bd77a	-0.13656417
118	0x3d1412be	0.036150686
119	0xbe1a6e40	-0.1508112
120	0xbe346c5d	-0.17619462
121	0xbd34e03b	-0.044159155
122	0x3cfab7a2	0.030605141
123	0x3e28f9d9	0.1650156
124	0xbdf0a468	-0.11750108
125	0x3e291d08	0.16514981
126	0x3b814239	0.003944662
127	0x3d1d6d2f	0.038434204
128	0xbe57b348	-0.21064484
129	0xbe332c9e	-0.17497489
130	0x3e553fa4	0.20825058
131	0x3de6f6d5	0.11277548
132	0x3e094a25	0.1340719
133	0xbe523c01	-0.20530702
134	0xbdb52bb9	-0.0884623
135	0x3dd09718	0.10185069
136	0xbaa469ab	-0.0012543699
137	0xbc2cf679	-0.010556811
138	0x3e43b29d	0.19111104
139	0xbe6a5bd5	-0.22886594
140	0x3e1eadaf	0.15495943
141	0x3dacd7f2	0.08439626
142	0x3dd8ec7e	0.10591982
143	0x3e63e4a7	0.22255193
144	0xbdf77b91	-0.12084115
145	0xbe650d19	-0.22368278
146	0xbd885640	-0.06657076
147	0xbd719801	-0.058982853
148	0xbe583281	-0.21113016
149	0x3e1d1c41	0.1534281
150	0x3e41a7a7	0.1891161
151	0xbd8b585c	-0.068039626
152	0xbe5dade4	-0.21648365
153	0xbe46c86a	-0.1941239
154	0xbdfae85b	-0.122513495
155	0x3c1bf24c	0.009518217
156	0x3e1d9f35	0.15392764
157	0x3e2a3cbf	0.16624735
158	0x3e4cc526	0.19997081
159	0x3d29d009	0.041458163
160	0x3d89c0a3	0.06726196
161	0x3d9561d6	0.07294051
162	0xbd1ebb6d	-0.038752962
163	0x3d61bfbc	0.055114493
164	0x3e6c4c16	0.230759
165	0xbe152e4f	-0.14568447
166	0x3e0cc29d	0.13746114
167	0xbceff5ae	-0.029291954
168	0x3d1f2ff1	0.03886408
169	0xbdb28803	-0.087173484
170	0x3dabf307	0.08395963
171	0x3dd329e8	0.10310727
172	0xbcd08d53	-0.025458014
173	0x3deab4ab	0.11460241
174	0xbe52bc97	-0.20579754
175	0xbe276f65	-0.16351087
176	0xbe5832a8	-0.21113074
177	0xbd70ff87	-0.05883744
178	0xbe54fd4b	-0.20799749
179	0x3e4ab832	0.19796827
180	0x3d8a6778	0.06758016
181	0xbe69412e	-0.2277877
182	0xbc3170e3	-0.010830137
183	0x3e0d80ff	0.1381874
184	0x3b3fa730	0.0029243939
185	0x3de6b767	0.1126545
186	0x3d902c5b	0.0703971
187	0xbc5619da	-0.013067687
188	0xbdeac4d4	-0.11463323
189	0xbe50dc3b	-0.20396511
190	0x3c3227ee	0.010873778
191	0x3c8abd8e	0.01693609
192	0xbdee2ac0	-0.11629248
193	0xbcc25722	-0.023723189
194	0xbe0d83fc	-0.1381988
195	0x3e68ad33	0.2272232
196	0xbdde049e	-0.108407244
197	0xbe2c044e	-0.16798517
198	0x3e13c268	0.14429629
199	0x3b7b76c2	0.0038370346
200	0xbd62373a	-0.05522845
201	0xbe240015	-0.16015656
202	0xbcd4d539	-0.025980579
203	0xbc3d1851	-0.011541442
204	0x3d0f5fcd	0.035003472
205	0x3e5f972d	0.21835013
206	0x3e1213dd	0.1426539
207	0x3de9a115	0.11407677
208	0xbdb35494	-0.08756366
209	0xbe211cd3	-0.15733652
210	0x3e5b3024	0.21405083
211	0x3e18f797	0.14938198
212	0xbdd546be	-0.104138836
213	0x3e4cfa3d	0.20017333
214	0xbe5ed4cb	-0.21760862
215	0x3e3b209a	0.18274155
216	0x3e0a93db	0.13532965
217	0xbe24687d	-0.16055484
218	0xbe5cf747	-0.21578704
219	0xbbbbaecd	-0.005727625
220	0x3d68ec4f	0.056865986
221	0x3caaa21e	0.020829257
222	0xbbd07b48	-0.0063623525
223	0xbe551145	-0.20807369
224	0xbe071b1b	-0.13193934
225	0xbddbe36f	-0.10736739
226	0x3d95b83b	0.0731053
227	0x3e0cad2e	0.13737938
228	0xbe22fc4a	-0.15916553
229	0x3e4c716d	0.19965144
230	0xbe2c92db	-0.16852896
231	0x3e159fa3	0.14611678
232	0x3d785ef6	0.060637437
233	0xbc9ee5d8	-0.019396707
234	0x3d910872	0.07081689
235	0x3d7363a4	0.059421197
236	0xbd553fe0	-0.05206287
237	0xbe1e3b58	-0.15452325
238	0xbcf88713	-0.030337846
239	0xbe3144ac	-0.17311352
240	0x3e591219	0.2119831
241	0x3d474ea4	0.048658982
242	0x3c2aa272	0.010414707
243	0xbdba164a	-0.090862826
244	0x3b2b93da	0.0026180656
245	0xbe0dff1d	-0.13866849
246	0x3daa2857	0.083084755
247	0xbd536d1a	-0.05161772
248	0x3dc21407	0.09476476
249	0x3d0bbe6e	0.034117155
250	0x3e4af446	0.19819745
251	0xbb92f8d2	-0.004485228
252	0x3e553501	0.20821
253	0x3c3c59d6	0.011496028
254	0xbe4aedd2	-0.19817284
255	0xbd493bdc	-0.049129352

linear_2.weight f4 [128, 256]
0	0xbd34afbb	-0.044112902
1	0xbd1bc2c7	-0.03802755
2	0x3d3b4dad	0.045728374
3	0xbcbca714	-0.023028888
4	0x3bfda803	0.007740976
5	0xbc0f0eb7	-0.008731536
6	0x3d5f013b	0.054444533
7	0xbab2ae5e	-0.0013632288
8	0x3d1dea9e	0.038553827
9	0xbd153415	-0.036426622
10	0xbc879a82	-0.016553167
11	0x3cbac4f6	0.022798996
12	0xbb662bb8	-0.0035121273
13	0x3c901aea	0.017590959
14	0x3d96694f	0.07344305
15	0x3da274b5	0.07932416
16	0xbd096fc1	-0.033553842
17	0x3cf40271	0.02978632
18	0xbd06fe18	-0.032957166
19	0x3c712fb7	0.014720849
20	0x3d282a0a	0.041055717
21	0xbcd312d8	-0.025765821
22	0x3c8723a2	0.016496483
23	0xbd477fc0	-0.048705816
24	0x3daa3d01	0.08312417
25	0xbcc0819c	-0.023499303
26	0xbcf68e10	-0.030097038
27	0x3d4e6b84	0.050395504
28	0x3d5ce2fe	0.053927414
29	0xbc2cb6bb	-0.010541613
30	0xbd2784d3	-0.040898155
31	0x3d2f260e	0.0427609
32	0x3d8ed6a9	0.06974537
33	0xbc2311de	-0.00995299
34	0xbd69ed9d	-0.05711137
35	0x3caea79e	0.02132016
36	0xbd101bb1	-0.03518266
37	0xbd810846	-0.06300406
38	0x3d15fbb7	0.036617007
39	0x3d94211f	0.0723288
40	0x3d512196	0.05105742
41	0xbc9caff1	-0.019126864
42	0x3c50e904	0.012750868
43	0x3d98f983	0.074694656
44	0xbccf1ca1	-0.025282206
45	0xbd384ab7	-0.04499313
46	0x3cf771cc	0.03020563
47	0x3c730827	0.014833487
48	0x3cb03e2d	0.021514023
49	0x3cd300fb	0.025757303
50	0x3d556680	0.052099705
51	0x3d26d796	0.040732943
52	0xbcf08c4c	-0.029363774
53	0xbc995ae1	-0.018720092
54	0xbd2d4390	-0.04230076
55	0xbd130db7	-0.03590175
56	0xbd46a30c	-0.048495337
57	0x3d4f8784	0.050666347
58	0x3c367e6c	0.01113854
59	0x3d1aee0f	0.037824687
60	0xbcec61d2	-0.028855238
61	0xbd1da600	-0.038488388
62	0x3d65bd15	0.056088526
63	0xbc561b2c	-0.013068002
64	0x3d3cd6a2	0.046103127
65	0x3aaa62f0	0.0012999456
66	0x3d9c7875	0.07640163
67	0xbc9a6b3b	-0.01884996
68	0xbd224bb0	-0.039622962
69	0x3d856147	0.06512695
70	0x3d3cf380	0.046130657
71	0x3d6cb489	0.05778936
72	0xbc3dfbfe	-0.011595724
73	0xbcb10577	-0.021609051
74	0x3c978028	0.018493727
75	0xbcacaf7d	-0.021079773
76	0xbd80d43c	-0.062904805
77	0x3d10e0f6	0.03537079
78	0xbcb496ce	-0.022044566
79	0xbcdd8fde	-0.02704614
80	0xbca6885c	-0.020328693
81	0xbc5a6602	-0.013329985
82	0xbb66c041	-0.0035209807
83	0xbd4b9d8f	-0.049710806
84	0xbc0d8112	-0.00863673
85	0x3d16658f	0.036717948
86	0x3b8c6277	0.004284199
87	0xbd6c93fe	-0.057758324
88	0x3d4cbffa	0.04998777
89	0x3d4abc26	0.04949584
90	0x3d60e170	0.054902494
91	0xbcb81469	-0.02247067
92	0xbcb09c3e	-0.021558877
93	0x3d568ddb	0.052381378
94	0xbc514195	-0.012771984
95	0xbd87e0c0	-0.066346645
96	0x3d0ef818	0.03490457
97	0x3d1efb0b	0.038813632
98	0x3bdb1502	0.006685854
99	0x3dabd76d	0.083906986
100	0xb9fc46a9	-0.00048117831
101	0xbb555266	-0.0032550334
102	0x3a887b68	0.0010412754
103	0xbcba19fe	-0.022717472
104	0xbce43631	-0.027857872
105	0xbcf16813	-0.029468572
106	0x3da071b3	0.078341864
107	0x3cf41d1e	0.02979904
108	0xbd66052a	-0.05615727
109	0x3caaef7c	0.020866148
110	0xbcaa726d	-0.020806516
111	0xbb7bde12	-0.0038431925
112	0x3cc187fd	0.023624415
113	0x3d003bb8	0.031306952
114	0xbbe453c6	-0.0069679944
115	0xbd0fdc26	-0.03512206
116	0x3cc78bce	0.024358656
117	0xbcf94860	-0.030430019
118	0x3d3a6b19	0.045512293
119	0x3d0e1b03	0.03469373
120	0x3c9ccb59	0.019139932
121	0xbc6d42d2	-0.014481263
122	0x3d95d6cc	0.0731636
123	0x3d067b51	0.032832447
124	0x3d7aacb8	0.061199874
125	0x3cf335f7	0.029688818
126	0xbb21cd59	-0.0024689047
127	0x3d8e17ad	0.069381095
128	0xbd0b6fb3	-0.03404207
129	0xbd0105f3	-0.031499814
130	0x3d3d2246	0.046175264
131	0xbd6cee22	-0.05784429
132	0x3d940499	0.072274394
133	0xbd56db58	-0.052455276
134	0x3d0120f7	0.03152558
135	0xbcb3e09a	-0.021957684
136	0x3c333ebb	0.010940249
137	0xbca32e27	-0.019919468
138	0x3d98bb4b	0.07457598
139	0xbd71e277	-0.059053864
140	0x3d14835f	0.036258098
141	0xbc562a3f	-0.013071596
142	0x3d69dffc	0.057098374
143	0xbd03dfd4	-0.03219588
144	0x3d303dfa	0.043027855
145	0x3cec16ef	0.02881953
146	0xbc633756	-0.013868174
147	0x3ccb2f81	0.024802925
148	0x3d6f4ed3	0.058424782
149	0x3c5af02b	0.013362925
150	0x3d99f469	0.07517321
151	0x3d616223	0.05502523
152	0x3d6dfe98	0.058104128
153	0x3c3a5834	0.011373568
154	0x3d55b8d6	0.052178226
155	0x3d940f1f	0.072294466
156	0xbd1f52f9	-0.03889749
157	0x3c6e919d	0.014561084
158	0xbd1c06a8	-0.038092285
159	0x3d120339	0.035647605
160	0x3b222ec8	0.0024747122
161	0xbb420888	-0.0029607136
162	0x3d2f4e25	0.042799134
163	0x3d43b7ac	0.047782585
164	0x3cca14e5	0.024668166
165	0xbd4470c5	-0.047959108
166	0xbd24c430	-0.04022616
167	0x3c7a0e67	0.015262223
168	0xbd8376d9	-0.06419153
169	0xbd700ebb	-0.058607798
170	0x3d3b5d1f	0.045743104
171	0x3d462deb	0.048383635
172	0xbbc88dbe	-0.0061204126
173	0xbd518b64	-0.051158324
174	0xbd5ad5ee	-0.053426675
175	0x3b73bffa	0.0037193284
176	0x3d721c5d	0.05910908
177	0xbcd839ae	-0.026394691
178	0x3d19c958	0.037545532
179	0xbcd70b13	-0.026250398
180	0xbbca6e9b	-0.006177736
181	0x3d96978c	0.07353124
182	0xbcbc8ae2	-0.023015443
183	0x3d5844a6	0.052799843
184	0x3c59fc12	0.013304727
185	0xbb60fb63	-0.0034329526
186	0xbcee002c	-0.029052816
187	0xbd69ae78	-0.057051152
188	0xbd6de70c	-0.05808167
189	0xbc985b1c	-0.018598132
190	0xbce1ab05	-0.027547369
191	0xbca1545c	-0.019693546
192	0xbd0ad160	-0.03389108
193	0x3d2e117a	0.042497136
194	0xbd524fe1	-0.05134571
195	0x3d08228b	0.033236068
196	0x3cb6c3df	0.022310195
197	0x3cfc5519	0.030802296
198	0x3d6203d0	0.055179417
199	0xbd29e783	-0.041480552
200	0xbc5aa728	-0.013345517
201	0x3d2c86a3	0.042120587
202	0x3cd470aa	0.025932629
203	0xbd1afdbc	-0.037839636
204	0x3d621438	0.055195063
205	0x3d3c0e38	0.045911998
206	0x3b85307b	0.004064617
207	0xbbc1be56	-0.0059125824
208	0xbd5dd046	-0.054153703
209	0x3d7def2e	0.061995678
210	0xbcc076fc	-0.023494236
211	0x3d0553d9	0.032550666
212	0x3c8e9835	0.017406562
213	0xbc830eb3	-0.01599822
214	0x3c627509	0.013821849
215	0x3d6dfd1b	0.05810271
216	0x3d714f4d	0.058913518
217	0xbbeee3a2	-0.0072903195
218	0x3d59609e	0.053070657
219	0xbca6a5b4	-0.020342685
220	0xbd8ccb58	-0.06874722
221	0xbd4df59a	-0.050283052
222	0xbd8c50ad	-0.06851325
223	0xbcf0813d	-0.0293585
224	0xbd0719be	-0.032983534
225	0xbd8a1a0a	-0.06743248
226	0x3b7f4e42	0.0038956557
227	0xbd2054ed	-0.03914349
228	0xbd1ac5c9	-0.03778628
229	0x3c8f7160	0.017510116
230	0xbca09c9f	-0.019605933
231	0x3d4e9e3c	0.050443873
232	0x3d83a88b	0.064286314
233	0xbd5f3413	-0.05449302
234	0xbccdb83a	-0.02511226
235	0x3d925374	0.07144824
236	0xbd0f892e	-0.035042934
237	0x3d14152c	0.036153004
238	0xbc9fe23e	-0.01951706
239	0x3d4c461b	0.049871545
240	0x3d8abad5	0.06773917
241	0xbc8c0209	-0.017090814
242	0x3cb3618a	0.021897096
243	0x3c468293	0.012116092
244	0x3cc1df55	0.023666063
245	0xbbbd26f1	-0.0057724644
246	0xbc0c2602	-0.008553984
247	0x3b1dba53	0.0024067357
248	0xbd8049d1	-0.06264079
249	0x3c8b8229	0.017029839
250	0xbbe0661a	-0.006848109
251	0xbbd36549	-0.006451283
252	0x3d5581a3	0.052125584
253	0xbd4a409d	-0.049378026
254	0x3ca04612	0.019564662
255	0xbd1f8c0c	-0.03895192

linear_2.bias f4 [128]
0	0xbd715788	-0.058921367
1	0xbd5addad	-0.053434063
2	0xbd1acf80	-0.037795544
3	0x3cc27a1a	0.023739863
4	0xbd72103f	-0.059097525
5	0xbd19cdc3	-0.037549745
6	0xbd80989a	-0.062791064
7	0x3d5d901a	0.054092504
8	0x3c060937	0.008180908
9	0x3c893e98	0.01675348
10	0xbd195ccc	-0.037442014
11	0xbd035827	-0.03206649
12	0xbc3080a3	-0.010772857
13	0x3d7a37fe	0.061088555
14	0x3c1e574d	0.009664369
15	0x3d012ade	0.031535022
16	0x3c689135	0.014194776
17	0xbd1aadf7	-0.037763562
18	0xbbd9c6c6	-0.00664601
19	0xbd770d5b	-0.06031547
20	0xbc7352b4	-0.014851261
21	0x3b2886b6	0.002571506
22	0x3cfa31c2	0.030541304
23	0x3ad9f82c	0.0016629747
24	0x3d21b04e	0.039474778
25	0x3d3e6c46	0.046489976
26	0x3a6fcfa9	0.000914807
27	0x3d3a730d	0.045519877
28	0xbd15c726	-0.036566876
29	0x3d005587	0.031331565
30	0x3d4536f2	0.048148103
31	0x3c73b79b	0.014875318
32	0x3c21a3cf	0.009865715
33	0x3d149f89	0.036284957
34	0xbd3541a8	-0.044252068
35	0x3ced38f6	0.028957825
36	0xbd323a09	-0.043512378
37	0x3bb2ee61	0.005460546
38	0xbd246c24	-0.040142193
39	0xbcab6f0a	-0.020926971
40	0xba564e30	-0.0008175103
41	0x3d5b884d	0.053596783
42	0x3d130829	0.035896454
43	0xbcb15c04	-0.021650322
44	0xbd6557a2	-0.055991776
45	0x3c7aef0e	0.015315784
46	0x3cd8c8e9	0.026462989
47	0xbd3a22a2	-0.045443185
48	0xbb7a0ed6	-0.0038155816
49	0xbcfcd97a	-0.03086542
50	0xbc8cd3bf	-0.017190812
51	0x3cdf100e	0.027229335
52	0x3d070fc4	0.03297402
53	0xbd6cc62e	-0.057806186
54	0x3c8c3a99	0.017117785
55	0x3d48a83e	0.048988573
56	0x3d14536b	0.036212366
57	0x3c2944f3	0.01033138
58	0x3c41bbe3	0.011824581
59	0x3d536008	0.051605254
60	0x3c641220	0.013920337
61	0x3bc9f5d3	0.0061633377
62	0x3cde1536	0.027109724
63	0x3d174517	0.036931124
64	0xbbe5d14b	-0.007013475
65	0xbc773806	-0.015089041
66	0xbbc63a9f	-0.0060494686
67	0xbd36a3c0	-0.044589758
68	0xbd1fff95	-0.0390621
69	0x3c109ad0	0.008825973
70	0xbc85c428	-0.016328886
71	0x3bc7409c	0.0060807
72	0xbd1cc5e0	-0.038274646
73	0xbd238658	-0.039923042
74	0x3a68e5b3	0.00088843255
75	0xbd040787	-0.03223374
76	0xbd707894	-0.058708742
77	0x3d2eb2bd	0.042650927
78	0x3d0ef40c	0.03490071
79	0xbd5002cd	-0.05078392
80	0x3d143dca	0.03619174
81	0x3d4cfe7a	0.050047375
82	0x3d01fc22	0.031734593
83	0x3c6f7ac1	0.014616669
84	0xbc0d817a	-0.008636827
85	0x3d3df477	0.046375718
86	0xbd602154	-0.054719284
87	0xbc8c3362	-0.017114345
88	0x3d37c79f	0.044868108
89	0xbc51116d	-0.012760502
90	0x3c869e28	0.016432837
91	0x3d19cea2	0.037550576
92	0xbc5d4a07	-0.013506419
93	0x3c851a38	0.016247854
94	0xbd004269	-0.031313334
95	0x3d664edd	0.056227554
96	0x3d3f2360	0.046664596
97	0x3ceae11f	0.0286718
98	0xbc9e8f1c	-0.01935535
99	0xbd7ac1c6	-0.061219953
100	0x3d0a6098	0.033783525
101	0xbd0accda	-0.033886768
102	0x3c6cc08c	0.014450204
103	0x3ce43626	0.027857851
104	0x3d646c07	0.055767085
105	0x3c6cd44b	0.014454911
106	0xba89eeae	-0.0010523403
107	0xbd498236	-0.049196444
108	0x3d7a06e2	0.06104172
109	0xbc6878d3	-0.014188963
110	0xbce04fe4	-0.027381845
111	0xbc48bd1f	-0.012252121
112	0x3d75cde7	0.060010817
113	0x3c073630	0.008252665
114	0x39f7c985	0.00047261655
115	0xbd1b77a2	-0.037955888
116	0xbcf29a89	-0.029614704
117	0x3ca7fd44	0.020506509
118	0xbd40515d	-0.046952594
119	0x3d41a4a1	0.047276143
120	0x3cb80479	0.02246307
121	0xbd175083	-0.036942016
122	0xbd17abe3	-0.03702916
123	0x3d07dab0	0.03316754
124	0xbd802987	-0.06257921
125	0xbd768069	-0.060181055
126	0x3cc5ad53	0.024130499
127	0x3adad0d5	0.0016694317

linear_3.weight f4 [64, 128]
0	0x3bd98c11	0.0066390117
1	0x3deefd47	0.116694026
2	0xbd7c4703	-0.06159116
3	0x3d17cf3e	0.037062876
4	0xbdaec32e	-0.08533321
5	0x3d03735a	0.03209243
6	0xbd131779	-0.035911057
7	0xbd3a7c51	-0.045528714
8	0x3dc0253d	0.09382103
9	0x3d15c7db	0.03656755
10	0x3cea8705	0.028628835
11	0xbd1cbf9c	-0.03826867
12	0x3cee2558	0.029070541
13	0xbcc787b9	-0.02435671
14	0xbcd54f76	-0.026038866
15	0xbdab8d61	-0.08376575
16	0xbdb5b59e	-0.08872531
17	0xbd1d8a24	-0.03846182
18	0xbc623c1c	-0.0138082765
19	0xbc34be1e	-0.011031656
20	0xbba7e01b	-0.005123151
21	0x3df96eaa	0.121793106
22	0xbd8ba1b4	-0.06817952
23	0x3d6b15c2	0.057393797
24	0x3c81c0de	0.015839037
25	0x3d91edac	0.071254104
26	0x3e23301d	0.15936323
27	0x3d926b4a	0.0714937
28	0x3cd91338	0.026498422
29	0xbd05e828	-0.032692105
30	0x3d683760	0.056693435
31	0x3db5abf1	0.08870686
32	0xbc9402dc	-0.01806777
33	0xbdb76aff	-0.08955955
34	0x39b4f6f2	0.00034516264
35	0x3cbd88e0	0.023136556
36	0x3d7ec350	0.062197983
37	0x3d2603b4	0.040530875
38	0x3ddafcec	0.10692772
39	0xbd40a6ca	-0.047034062
40	0x3d8a0433	0.06739082
41	0xbd5a013b	-0.05322383
42	0x3d60ba0f	0.05486494
43	0xbd023b25	-0.031794686
44	0x3d17687f	0.03696489
45	0x3d44ea61	0.048075084
46	0x3dc1cd9a	0.094630435
47	0x3d4697db	0.048484664
48	0xbad93edd	-0.0016574521
49	0x3d92ec8b	0.07174023
50	0xbcabefec	-0.020988427
51	0x3d185288	0.037188083
52	0xbd3f9b96	-0.046779238
53	0xbe402ebc	-0.18767828
54	0xbdf20dea	-0.1181906
55	0xbd429ba9	-0.04751173
56	0x3d922b69	0.07137186
57	0xbd4ca8a2	-0.04996551
58	0x3d71e06c	0.059051916
59	0x3c442c63	0.011973473
60	0xbc827bf2	-0.015928242
61	0xbd6744c9	-0.056462083
62	0xbd568277	-0.052370515
63	0xbcf9a867	-0.030475808
64	0xbcc897d5	-0.024486462
65	0xbd6fdf53	-0.058562588
66	0x3d3d87ed	0.046272207
67	0x3dcefe04	0.101070434
68	0x3cec5a77	0.02885173
69	0x3d3dca82	0.046335705
70	0x3dadb1ff	0.08481216
71	0x3d98c73c	0.07459876
72	0xbaa70769	-0.0012743297
73	0x3da16792	0.078810826
74	0xbc45f7c6	-0.012083
75	0xbbd91007	-0.006624225
76	0x3c4c8bb0	0.012484476
77	0x3dad5401	0.08463288
78	0x3cd1594a	0.025555272
79	0xbdaf0313	-0.08545508
80	0x3dbafc8e	0.09130202
81	0x3cb2009e	0.02172881
82	0xbca29f25	-0.019851277
83	0xbce86342	-0.028367642
84	0xbc303512	-0.01075484
85	0x3dbce646	0.09223609
86	0x3c12b76f	0.008954867
87	0x3d832d64	0.06405142
88	0x3d372f95	0.044723112
89	0x3db38ea0	0.08767438
90	0x3d2fd412	0.042926855
91	0xbafc580f	-0.0019252318
92	0xbb64fc1b	-0.0034940306
93	0x3cb8b720	0.022548258
94	0x3c2a8a07	0.010408885
95	0x3d020392	0.031741686
96	0x3df884e3	0.12134721
97	0x3c0674d2	0.008206563
98	0xbd2c443d	-0.042057265
99	0xbc321525	-0.010869299
100	0x3cf39bf0	0.029737443
101	0x3c1c640f	0.00954534
102	0x3de70538	0.11280292
103	0x3cf5e5be	0.030016776
104	0xbd633e4a	-0.055479325
105	0x3d1357a0	0.035972238
106	0x3d418ef4	0.04725547
107	0x39908558	0.0002756517
108	0xbd239154	-0.039933518
109	0x3d63c4a8	0.055607468
110	0xbd5370ac	-0.051621124
111	0x3d60aee1	0.054854278
112	0x3c29a8bc	0.010355171
113	0xbcf22758	-0.029559776
114	0x3d25b606	0.040456794
115	0xbbec4464	-0.0072103012
116	0xbe003e1d	-0.12523694
117	0xbcc36c69	-0.023855405
118	0x3cd9754a	0.026545186
119	0xbd12a8f4	-0.035805658
120	0x3c5ee538	0.013604455
121	0x3e174222	0.14771321
122	0xbdb78701	-0.08961297
123	0x3b91d0ea	0.0044499533
124	0xbbeaef88	-0.0071696676
125	0x3dd281bf	0.10278653
126	0x3db0521e	0.086094126
127	0xbcf97468	-0.030451015
128	0xbd208471	-0.039188806
129	0x3cf64b8a	0.030065317
130	0x3c5bb711	0.013410346
131	0x3d0db348	0.034594804
132	0xbdb43ad0	-0.0880028
133	0x3cfc091d	0.030766064
134	0x3d6db8ab	0.05803744
135	0xbd516eb6	-0.051130973
136	0xbd23a178	-0.03994891
137	0xbcf6d074	-0.030128695
138	0x3d111b52	0.035426445
139	0x3d9a85c9	0.07545049
140	0x3cdaf46a	0.026727874
141	0xbc89593b	-0.016766181
142	0xbdc596b0	-0.09647882
143	0xbd2c9ead	-0.042143513
144	0x3d2db316	0.042407118
145	0xbd106da4	-0.03526081
146	0x3cc87d60	0.024473846
147	0x3cc29370	0.023751944
148	0xbd936b68	-0.071982205
149	0x3cd40331	0.025880428
150	0xbc743d97	-0.014907262
151	0xbd8c34c9	-0.068460055
152	0x3d3acd1b	0.04560576
153	0xbcf525b0	-0.029925197
154	0xbd46a7a4	-0.04849972
155	0xbd5ccd12	-0.053906508
156	0xbcbc844a	-0.0230123
157	0xbc978a6a	-0.018498618
158	0x3c57ebba	0.01317876
159	0x3d613b23	0.054988038
160	0x3c2dc506	0.010606056
161	0x3c127983	0.008940103
162	0x3d7173d0	0.058948338
163	0xbdc35b1e	-0.095388636
164	0xbd4f87ea	-0.050666727
165	0x3d889e64	0.066708356
166	0xbdd5f5f3	-0.10447302
167	0xbc903aa9	-0.017606096
168	0x3d7e0ebe	0.062025778
169	0xbc8f68de	-0.01750606
170	0x3db24f01	0.08706475
171	0x3c2e1020	0.010623962
172	0xba87aa31	-0.0010350404
173	0xbda6aa83	-0.08137991
174	0x3cb53380	0.022119284
175	0xbdd51695	-0.10404698
176	0x3cac3ec6	0.021026026
177	0x3d667e07	0.056272533
178	0xbc1124ce	-0.008858873
179	0xbd8b5ba8	-0.068045914
180	0xbddbf304	-0.10739711
181	0xbd3e7c28	-0.046505123
182	0x3cd31a25	0.025769303
183	0xbd5acae8	-0.053416163
184	0x3d47c59d	0.048772443
185	0xbd2b1b1d	-0.041773904
186	0xbcae7705	-0.021296987
187	0xbceb7282	-0.028741125
188	0xbb0aedd1	-0.0021198879
189	0xbc0425c7	-0.008065647
190	0xbe179716	-0.14803728
191	0xbd60002e	-0.05468767
192	0xbdad37ae	-0.08457886
193	0x3dbdfeae	0.09277092
194	0x3d838d0f	0.06423389
195	0x3d181e21	0.03713811
196	0xbd8e5dcf	-0.06951486
197	0x3dcd0aaa	0.100118
198	0x3ce3125c	0.027718715
199	0x3a87406e	0.0010318884
200	0x3dbd774c	0.0925127
201	0xbc8a2879	-0.016865002
202	0x3d5a5dc7	0.05331209
203	0x3a6b4f80	0.0008976385
204	0x3dbfc18d	0.09363089
205	0xbd93f276	-0.0722398
206	0xbbe7174e	-0.0070523387
207	0x3cfd3334	0.030908205
208	0xbce8e51e	-0.028429564
209	0xbd1120b9	-0.035431597
210	0x3c0bf125	0.00854138
211	0x3d5cbad1	0.0538891
212	0x3cd6d6f6	0.026225548
213	0x3d56989f	0.052391645
214	0xbd886b95	-0.06661145
215	0xbd9b58b3	-0.075852774
216	0x3d189159	0.03724799
217	0xbd430be8	-0.047618777
218	0x3d91e87e	0.071244225
219	0x3d3f9a05	0.046777744
220	0x3d3050f7	0.043045964
221	0xbd736101	-0.059418682
222	0xbd1e1ce1	-0.03860176
223	0xbd204a15	-0.03913315
224	0xbd3735ff	-0.04472923
225	0xbd6d1f40	-0.05789113
226	0x3c9a1851	0.018810423
227	0xbd17e6ac	-0.03708522
228	0x3d7a05a6	0.061040543
229	0xbda9d27f	-0.08292102
230	0x3d8c4671	0.06849373
231	0xbdaa21be	-0.08307217
232	0x3c19143a	0.009343201
233	0xbc89f086	-0.016838323
234	0xbddacf86	-0.10684113
235	0x3d988fa5	0.07449273
236	0xbd737d8c	-0.059445903
237	0xbd73bfaa	-0.059508957
238	0xbb04ffb0	-0.0020294003
239	0x3cd6b9a1	0.026211562
240	0xbd04e1c3	-0.032441866
241	0xbcbf9c09	-0.023389833
242	0x3d0002b8	0.031252593
243	0x3d8285bb	0.06373163
244	0xbdd0c805	-0.10194401
245	0xbd3c1476	-0.04591795
246	0xbd301304	-0.042986885
247	0xbd4c3932	-0.049859233
248	0x3d0d62f2	0.03451819
249	0x3d7abe0d	0.061216403
250	0x3cbbaa90	0.022908479
251	0xbdabbc1d	-0.08385489
252	0x3c2f8adc	0.010714259
253	0xbdc6c996	-0.09706418
254	0xbb88e10e	-0.0041772192
255	0xbda1719f	-0.07883

linear_3.bias f4 [64]
0	0x3d28b26d	0.041185785
1	0xbd89d0d9	-0.06729288
2	0xbd70ccdd	-0.058789123
3	0x3dae2134	0.08502427
4	0x3d66431a	0.056216337
5	0x3d887203	0.06662371
6	0x3d65cd40	0.056103945
7	0x3ca47b65	0.02007837
8	0x3cc58e15	0.024115602
9	0xbb304305	-0.0026895416
10	0xbc7ee3c5	-0.015557234
11	0x3cde7447	0.027155055
12	0x3d292a03	0.04129983
13	0xbceb0bf2	-0.02869222
14	0xbbcfdc8e	-0.006343431
15	0x3ab5b8ee	0.0013864317
16	0xbd9bc092	-0.07605089
17	0x3d9a1d29	0.07525093
18	0xbda3c2e0	-0.07996154
19	0xbce67dde	-0.02813619
20	0x3d568583	0.05237342
21	0x3d03f3b0	0.03221482
22	0x3d553a10	0.052057326
23	0xbcf70bac	-0.030156933
24	0x3be91614	0.0071132276
25	0x3d7c8b79	0.06165645
26	0x3c1b32db	0.009472574
27	0x3d38a428	0.045078427
28	0xbda04472	-0.07825555
29	0x3d84e637	0.064892225
30	0xbda5d8f6	-0.08098023
31	0xbda68ca5	-0.081322946
32	0xbd23fcce	-0.040036015
33	0x3da6d667	0.08146363
34	0xbd793949	-0.060845647
35	0x3d817239	0.06320614
36	0x3d814c6d	0.06313405
37	0x3d063235	0.032762725
38	0x3cb3a0db	0.021927288
39	0xbdaf39a5	-0.08555917
40	0x3daac2d1	0.083379395
41	0xbd4e1586	-0.050313495
42	0x3d602553	0.054723095
43	0x3d0700fd	0.032959927
44	0x3d68058d	0.05664592
45	0x3d09e4ca	0.033665456
46	0x3c04d990	0.008108512
47	0xbd4f74b2	-0.0506484
48	0x3bac8234	0.005264545
49	0xbc5f806a	-0.013641456
50	0x3bf66a9c	0.007520033
51	0x3d983869	0.074326344
52	0x3ca03891	0.019558223
53	0xbd9841f7	-0.07434457
54	0xbb9137d5	-0.0044317045
55	0xbd5b24f2	-0.05350203
56	0xb9b604fb	-0.00034717456
57	0x3cd3d967	0.025860501
58	0xbd1114ef	-0.035420354
59	0xbd3bec58	-0.04587969
60	0x3dad0f39	0.08450169
61	0x3cf6fa8b	0.030148765
62	0xbd81c14f	-0.06335699
63	0x3d7cee4a	0.061750688

linear_4.weight f4 [2, 64]
0	0x3d79f1aa	0.061021484
1	0x3e843b7a	0.25826627
2	0x3e9016fd	0.2814254
3	0x3e20cbb7	0.15702711
4	0x3dc515ff	0.09623336
5	0x3cf611e8	0.030037835
6	0x3e6fafee	0.23406956
7	0x3d4b640d	0.049655963
8	0x3d9e7143	0.07736447
9	0x3d45ef05	0.04832365
10	0x3e1dcbcd	0.15409775
11	0x3e69fe70	0.22850966
12	0x3e5d860b	0.21633165
13	0x3e9324fa	0.28739148
14	0x3e5381eb	0.20655029
15	0x3dd6cafd	0.10487936
16	0x3e4e5551	0.20149733
17	0x3ce9804b	0.028503558
18	0xbcc103d0	-0.023561388
19	0x3d8a3e85	0.06750206
20	0x3d51c799	0.05121574
21	0x3e6039ea	0.21897092
22	0x3e3963b0	0.18104434
23	0xba9d1713	-0.0011985026
24	0x3e1b9c85	0.15196426
25	0x3e6f9f8d	0.23400708
26	0xbd104134	-0.035218433
27	0x3c4298bd	0.011877236
28	0x3de58d77	0.11208623
29	0x3e53dda8	0.20690024
30	0x3e49129d	0.19636007
31	0x3e0e5ae6	0.13901863
32	0x3d088814	0.0333329
33	0xbb3e3710	-0.002902452
34	0x3e646159	0.2230276
35	0x3e155143	0.1458178
36	0x3e1594d8	0.1460756
37	0x3e5d9cc1	0.21641828
38	0x3dac75a1	0.084208734
39	0xbc9f823f	-0.019471286
40	0x3da8ca97	0.08241766
41	0x3e72daa7	0.23716222
42	0x3e221983	0.15830044
43	0x3e1ffec1	0.15624525
44	0x3e2ed547	0.17073546
45	0x3d51922f	0.051164802
46	0x3e026b50	0.12736249
47	0x3e0aa83c	0.13540739
48	0xb9d41993	-0.00040454845
49	0x3d207498	0.039173692
50	0x3e70a973	0.2350214
51	0x3ea9e010	0.3317876
52	0x3def1ef3	0.11675825
53	0x3dd4e8e3	0.10395982
54	0x3d843784	0.06455901
55	0x3e4fe717	0.20302998
56	0x3de26816	0.11055009
57	0x3e731f8e	0.23742506
58	0x3e7f12f2	0.24909571
59	0x3b8298b4	0.003985489
60	0x3b76ea47	0.0037676261
61	0xbc6df3f4	-0.014523495
62	0x3e041e22	0.1290212
63	0x3dff6f0d	0.12472353
64	0xbc8b6acb	-0.017018696
65	0xbde2dfcb	-0.11077841
66	0xbdc0d253	-0.09415116
67	0x3d40c44d	0.047062207
68	0xbd9ef193	-0.077609204
69	0x3d9e9844	0.07743886
70	0x3c4b25ab	0.012399117
71	0xbd9d45e1	-0.07679344
72	0xbd6fe88b	-0.05857138
73	0x3cd90e0c	0.026495956
74	0x3a80eadc	0.0009835619
75	0xbdc2ee51	-0.095181115
76	0x3d94e629	0.07270462
77	0x3d5d7f85	0.05407669
78	0xbccebd82	-0.025236849
79	0x3db7c7cb	0.08973654
80	0x3d78e2ac	0.060763046
81	0xbd932f7a	-0.0718679
82	0x3d920104	0.071291
83	0xbbaee388	-0.0053371824
84	0xbd31148b	-0.043232482
85	0xbdcce476	-0.10004513
86	0x3d9c6ed4	0.07638326
87	0xbdd8030d	-0.10547457
88	0x3dbf7a8e	0.09349547
89	0xbdcaa196	-0.09894101
90	0x3b73af9c	0.0037183529
91	0x3dca938a	0.09891422
92	0x3cfaa178	0.030594572
93	0xbd257090	-0.04039055
94	0xbd44185a	-0.047874786
95	0xbd9c61f6	-0.07635872
96	0xbe093355	-0.13398488
97	0xbe0eb62f	-0.13936685
98	0xbe06f001	-0.13177492
99	0xbd6a5a16	-0.05721482
100	0x3db656f5	0.089033045
101	0x3dcc79f6	0.099842
102	0xbe0c0b1c	-0.13676113
103	0xbc645924	-0.013937268
104	0xbdf0bf25	-0.11755208
105	0x3d1c21a1	0.03811801
106	0xbda3dd2c	-0.080011696
107	0x3d6fb64c	0.05852346
108	0xbd49e1d0	-0.049287617
109	0xbd2092f7	-0.039202657
110	0xbdefe4ca	-0.1171356
111	0xbdcd143b	-0.10013624
112	0xbd4c88e1	-0.049935225
113	0x3d61b466	0.055103682
114	0xbdb71958	-0.08940381
115	0x3dd80674	0.10548106
116	0x3caea7bd	0.021320218
117	0xbd8c9546	-0.06864409
118	0xbe100c04	-0.14067084
119	0xbe0abb47	-0.13548003
120	0xbdb60eaa	-0.08889516
121	0x3da1c60c	0.078991026
122	0xbdbe9e7b	-0.093075715
123	0xbdc54310	-0.09631932
124	0x3dc8743d	0.09787796
125	0xbdcf67c9	-0.10127217
126	0x3d649f50	0.055815995
127	0xbdd10815	-0.1020662

linear_4.bias f4 [2]
0	0x3e3c4f32	0.18389586
1	0xbdf1bd2b	-0.11803659

batchnorm_1.weight f4 [256]
0	0x3f79b8ac	0.9754741
1	0x3f79cabc	0.97574973
2	0x3f794a23	0.9737875
3	0x3f805604	1.002625
4	0x3f82df8c	1.0224471
5	0x3f84c320	1.0372047
6	0x3f7bf19b	0.98415536
7	0x3f76c763	0.9639799
8	0x3f8109aa	1.0081074
9	0x3f7bfb99	0.9843078
10	0x3f7a49c7	0.97768825
11	0x3f816ba7	1.0110978
12	0x3f7985be	0.974697
13	0x3f7b6db5	0.98214275
14	0x3f8a9153	1.08256
15	0x3f7c337e	0.9851607
16	0x3f8a29bd	1.0793988
17	0x3f80e5bb	1.0070108
18	0x3f832af1	1.024748
19	0x3f7ac440	0.97955704
20	0x3f7d6f4c	0.9899795
21	0x3f81bf57	1.0136517
22	0x3f83bac3	1.029137
23	0x3f79be94	0.97556424
24	0x3f819698	1.0124083
25	0x3f824ac7	1.017907
26	0x3f7a93a4	0.9788153
27	0x3f7a2a09	0.9772039
28	0x3f7ab252	0.97928345
29	0x3f7b5e2c	0.9819057
30	0x3f7a4adc	0.97770476
31	0x3f7c9b68	0.9867463
32	0x3f7d2cb9	0.98896366
33	0x3f821cc9	1.0165035
34	0x3f7a8c75	0.9787057
35	0x3f7a1d6f	0.9770116
36	0x3f826644	1.0187459
37	0x3f7e1a1a	0.9925858
38	0x3f80a7ee	1.0051248
39	0x3f7bb086	0.9831623
40	0x3f8385b8	1.0275183
41	0x3f799743	0.9749643
42	0x3f7aca73	0.97965163
43	0x3f8350f9	1.0259086
44	0x3f7f6fb7	0.9977984
45	0x3f81fa77	1.0154561
46	0x3f76613c	0.9624212
47	0x3f803f95	1.0019404
48	0x3f7a118e	0.97683036
49	0x3f79b325	0.9753898
50	0x3f7e6aa1	0.9938145
51	0x3f8212fc	1.0162044
52	0x3f8011cf	1.0005435
53	0x3f81ee0e	1.0150774
54	0x3f79c5b9	0.97567326
55	0x3f7a6dba	0.9782368
56	0x3f82850e	1.0196855
57	0x3f831793	1.0241569
58	0x3f801c41	1.0008622
59	0x3f7ef174	0.9958718
60	0x3f7bb0c8	0.9831662
61	0x3f819934	1.0124879
62	0x3f79a4fd	0.9751738
63	0x3f7a2e5c	0.9772699
64	0x3f8301ba	1.0234902
65	0x3f827a03	1.0193485
66	0x3f80d60a	1.006532
67	0x3f8233cc	1.0172057
68	0x3f80b09f	1.00539
69	0x3f825858	1.018321
70	0x3f7ca3ca	0.9868742
71	0x3f816bca	1.011102
72	0x3f78f2e3	0.97245616
73	0x3f761a61	0.96134
74	0x3f804cc8	1.0023432
75	0x3f7d0926	0.98842084
76	0x3f80ef4e	1.007303
77	0x3f7b6706	0.98204076
78	0x3f830775	1.0236651
79	0x3f84442b	1.0333303
80	0x3f770683	0.9649431
81	0x3f7bca96	0.98355997
82	0x3f7a7e17	0.9784865
83	0x3f839055	1.0278422
84	0x3f7cc6a2	0.9874059
85	0x3f86e317	1.0538052
86	0x3f7db01e	0.9909686
87	0x3f81b74a	1.013406
88	0x3f84dfda	1.0380814
89	0x3f83770d	1.0270706
90	0x3f8276b8	1.019248
91	0x3f80d543	1.0065082
92	0x3f7ff36f	0.99980825
93	0x3f7ab33e	0.9792975
94	0x3f7bb2d6	0.98319757
95	0x3f7612f8	0.96122694
96	0x3f79e494	0.9761441
97	0x3f81d93c	1.014442
98	0x3f7b771d	0.9822863
99	0x3f806c31	1.0033017
100	0x3f778c7c	0.9669874
101	0x3f7af391	0.980279
102	0x3f859300	1.0435486
103	0x3f82f039	1.022956
104	0x3f824ebb	1.0180277
105	0x3f8350fd	1.0259091
106	0x3f81d03d	1.0141674
107	0x3f81725f	1.0113028
108	0x3f8333b1	1.025015
109	0x3f83bc62	1.0291865
110	0x3f72bd8a	0.94820464
111	0x3f824bb3	1.0179352
112	0x3f7d4294	0.98929715
113	0x3f830605	1.0236212
114	0x3f7d82f5	0.9902795
115	0x3f83fec5	1.0312124
116	0x3f7710d5	0.9651006
117	0x3f80b7de	1.0056112
118	0x3f78217e	0.96926105
119	0x3f7e782d	0.99402124
120	0x3f815986	1.0105445
121	0x3f81dc03	1.0145267
122	0x3f76951b	0.96321267
123	0x3f82f871	1.0232068
124	0x3f827cf3	1.0194381
125	0x3f78aebc	0.97141623
126	0x3f7acaac	0.979655
127	0x3f7ae39d	0.9800356
128	0x3f84a14d	1.0361725
129	0x3f8263d7	1.0186719
130	0x3f82d9aa	1.0222676
131	0x3f7d8147	0.99025387
132	0x3f823cd7	1.0174817
133	0x3f814b19	1.0101043
134	0x3f7a745b	0.97833794
135	0x3f796b72	0.97429574
136	0x3f811948	1.008584
137	0x3f7a54f3	0.9778587
138	0x3f7e7e97	0.9941191
139	0x3f82b98c	1.0212874
140	0x3f7447e3	0.9542219
141	0x3f7a25ce	0.97713935
142	0x3f881fdd	1.0634724
143	0x3f8183d0	1.0118351
144	0x3f7b1e19	0.980928
145	0x3f7d884f	0.99036115
146	0x3f81bcff	1.0135802
147	0x3f806d36	1.0033329
148	0x3f7eb7d5	0.99499255
149	0x3f7edc7d	0.9955519
150	0x3f80b531	1.0055295
151	0x3f7c4b3e	0.9855231
152	0x3f81e83e	1.0149
153	0x3f836c30	1.0267391
154	0x3f81fff5	1.0156237
155	0x3f7ab01d	0.9792498
156	0x3f7f3b3b	0.99699754
157	0x3f88041f	1.0626258
158	0x3f825401	1.0181886
159	0x3f79f991	0.97646433
160	0x3f7f7fe1	0.998045
161	0x3f7f7cc7	0.9979977
162	0x3f796101	0.9741364
163	0x3f80bb49	1.0057155
164	0x3f79ee67	0.976294
165	0x3f77c49e	0.9678439
166	0x3f7d4fd6	0.98949945
167	0x3f7b017c	0.9804914
168	0x3f80cd25	1.0062605
169	0x3f7fdb0d	0.9994362
170	0x3f7acc00	0.9796753
171	0x3f7552ec	0.95829654
172	0x3f7c6380	0.98589325
173	0x3f800af2	1.000334
174	0x3f7a1bee	0.9769887
175	0x3f7c7605	0.98617584
176	0x3f81c3f0	1.013792
177	0x3f805382	1.0025485
178	0x3f82fe95	1.0233942
179	0x3f7c6151	0.98585993
180	0x3f7f4169	0.9970918
181	0x3f7f4505	0.9971469
182	0x3f7a8b17	0.97868484
183	0x3f82aac4	1.0208364
184	0x3f7dbf1c	0.99119735
185	0x3f7b04d5	0.9805425
186	0x3f76b9f2	0.9637748
187	0x3f823e20	1.0175209
188	0x3f8162e6	1.0108306
189	0x3f7cae0a	0.9870306
190	0x3f7cb867	0.98718876
191	0x3f7ec87f	0.9952468
192	0x3f828109	1.0195628
193	0x3f7aa8ca	0.979138
194	0x3f768773	0.9630043
195	0x3f7c047f	0.9844436
196	0x3f7cf99d	0.9881838
197	0x3f767c02	0.9628297
198	0x3f82f137	1.0229863
199	0x3f7aa4b0	0.97907543
200	0x3f7a5cf0	0.9779806
201	0x3f79f2a3	0.9763586
202	0x3f7cf4ca	0.9881102
203	0x3f7aaf84	0.97924066
204	0x3f82f470	1.0230846
205	0x3f7ab4d1	0.97932154
206	0x3f811fea	1.0087864
207	0x3f81a66c	1.0128913
208	0x3f7f1064	0.99634385
209	0x3f7d0b22	0.9884511
210	0x3f7e104d	0.99243623
211	0x3f829b7a	1.0203698
212	0x3f824e7a	1.0180199
213	0x3f7efb6a	0.9960238
214	0x3f818c67	1.0120972
215	0x3f79b23a	0.9753758
216	0x3f825a13	1.0183738
217	0x3f798f72	0.97484505
218	0x3f7de18d	0.9917229
219	0x3f7a5572	0.9778663
220	0x3f7d47ee	0.9893788
221	0x3f823448	1.0172205
222	0x3f78e916	0.9723066
223	0x3f758d9a	0.9591919
224	0x3f7c2530	0.98494244
225	0x3f734fb3	0.95043486
226	0x3f823beb	1.0174536
227	0x3f80f9f8	1.0076284
228	0x3f81c763	1.0138973
229	0x3f822a5d	1.0169178
230	0x3f7869df	0.97036546
231	0x3f7c9c1f	0.9867572
232	0x3f82157b	1.0162805
233	0x3f80c995	1.0061518
234	0x3f7a6ee2	0.97825444
235	0x3f7c7ea6	0.9863075
236	0x3f80c59e	1.0060308
237	0x3f7c1d7e	0.984825
238	0x3f771cbb	0.96528214
239	0x3f7abcfa	0.97944605
240	0x3f7bc08f	0.98340696
241	0x3f81c31d	1.0137669
242	0x3f816cd3	1.0111336
243	0x3f7ad655	0.97983295
244	0x3f82792b	1.0193228
245	0x3f8207e1	1.0158654
246	0x3f7a1628	0.9769006
247	0x3f86837e	1.0508878
248	0x3f814d61	1.0101739
249	0x3f81c495	1.0138117
250	0x3f7aeed9	0.980207
251	0x3f824c5b	1.0179552
252	0x3f7acc13	0.9796764
253	0x3f859dee	1.0438821
254	0x3f7d40da	0.9892708
255	0x3f792156	0.9731649

batchnorm_1.bias f4 [256]
0	0xbcaa858b	-0.020815631
1	0xbc47c432	-0.012192773
2	0xba2de2c0	-0.00066332147
3	0x3c71e904	0.014765028
4	0x3d332a0c	0.04374127
5	0x3c4040c3	0.01173419
6	0x3b5a0903	0.0033269532
7	0x3bc8e6d8	0.0061310343
8	0xbc3eb883	-0.011640671
9	0xbc596d8d	-0.013270748
10	0xbc87ffac	-0.016601406
11	0x3c2dbb1b	0.010603691
12	0xbc73dd9b	-0.014884378
13	0xbca3f3b7	-0.020013673
14	0x3e217480	0.15767097
15	0x3bf6e422	0.00753452
16	0x3e2b61bc	0.16736501
17	0x3c1ac890	0.009447232
18	0x3cc555cf	0.024088768
19	0xbcafcd74	-0.021460272
20	0xbbc6f52a	-0.0060717063
21	0x3d9d8c5e	0.076927885
22	0x3c1f74ca	0.0097324345
23	0xbc6c9668	-0.0144401565
24	0x3bf1f72b	0.007384201
25	0x3cda4927	0.02664621
26	0x3d6c1e1e	0.05764591
27	0x3cd538e3	0.026028102
28	0xbc32fa94	-0.010924
29	0xbced6d14	-0.028982677
30	0xbbf7f1bd	-0.0075666592
31	0xbc6dafc4	-0.014507238
32	0xbc83e166	-0.01609869
33	0xbcba9ccd	-0.022779847
34	0xbc14c284	-0.009079579
35	0xbc3b7a5e	-0.011442749
36	0x3d88224b	0.06647166
37	0x3b5fc4cf	0.0034144407
38	0x3c9fc94b	0.019505164
39	0x3cc0d9b2	0.023541305
40	0x3af97eb8	0.0019034958
41	0xbc9f94b3	-0.019480085
42	0xbcf79ca2	-0.030226056
43	0x3d1d8029	0.0384523
44	0x3d9e3d08	0.077264845
45	0x3d744e21	0.059644822
46	0xbc77ac80	-0.015116811
47	0x3c250817	0.01007273
48	0x3c6e0434	0.014527369
49	0xbc4c95ae	-0.012486858
50	0xbd5864a0	-0.05283034
51	0x3d095ec8	0.033537656
52	0x3d0a38fa	0.033745743
53	0x3c51584c	0.012777399
54	0x3a622710	0.00086270366
55	0xbd2ed343	-0.042681944
56	0x3cb0787a	0.021541823
57	0x3c255ece	0.010093404
58	0x3c0b953a	0.008519465
59	0x3c7ef139	0.015560442
60	0x3c90b498	0.017664239
61	0x3c3cd19a	0.011524582
62	0xbcd93f2b	-0.026519379
63	0xbcd84fad	-0.02640518
64	0x3d0cbb3f	0.03435826
65	0x3c53c2fe	0.012924908
66	0x3beedb2e	0.007289312
67	0x3ca458f2	0.020061944
68	0x3d1a8e6c	0.03773348
69	0x3c2d98ff	0.010595559
70	0xbc59d29c	-0.013294842
71	0x3ccbaad6	0.024861734
72	0x3cace714	0.02110628
73	0xbc9172dd	-0.017754966
74	0x3c5f543b	0.013630922
75	0xbc9060d4	-0.017624296
76	0x3dbc0db5	0.09182302
77	0xbca1dcea	-0.01975866
78	0x3cc2d36e	0.023782458
79	0x3d615df8	0.055021256
80	0xbd00163c	-0.031271204
81	0x3cd9f0d3	0.026604092
82	0xbc71f74c	-0.014768433
83	0x3ca507aa	0.020145256
84	0xbc38beba	-0.0112759415
85	0x3de56674	0.11201182
86	0x3c5dd0aa	0.013538519
87	0x3bfb6b2b	0.0076726875
88	0x3dd6921a	0.104770854
89	0x3ceae68d	0.028674388
90	0xbc640229	-0.013916531
91	0x3dac695e	0.08418535
92	0x3c529260	0.012852281
93	0x3cc4b916	0.024014037
94	0xbca96680	-0.020678759
95	0xbc8e63a2	-0.017381493
96	0x3c6f4c7c	0.014605638
97	0xbd0108ac	-0.03150241
98	0xbbc6d00e	-0.0060672825
99	0xbc76ded0	-0.015067771
100	0x3c939b7b	0.018018475
101	0x3c03655b	0.0080197705
102	0x3cc16e00	0.023612022
103	0x3cd6af68	0.026206687
104	0x3c92fc9a	0.017942715
105	0x3d382af7	0.04496285
106	0xbb71171b	-0.0036787454
107	0x3d0bd67c	0.034140095
108	0x3c219d2c	0.009864133
109	0x3d0a6bb5	0.033794124
110	0xbc8594fb	-0.016306391
111	0xbbe903da	-0.007111055
112	0x3cbabe23	0.022795742
113	0x3ced28a0	0.028950036
114	0x3c2e84ba	0.010651762
115	0x3d314b72	0.04328484
116	0xbce73e4b	-0.028227946
117	0x3c879503	0.016550547
118	0x3cd398e2	0.025829736
119	0x3ca58ecd	0.020209694
120	0xbaa69174	-0.0012708143
121	0x3ccf03a8	0.025270298
122	0xbb33242e	-0.0027334797
123	0x3cb6cd18	0.022314593
124	0x3d00a1b4	0.031404212
125	0x3d4ebd5a	0.05047355
126	0xbcaef205	-0.021355638
127	0x3c86bbca	0.016446967
128	0xbcb1fe3a	-0.02172767
129	0x3cb12da0	0.021628201
130	0x3c81e56a	0.015856463
131	0x3cde0ecd	0.027106667
132	0xbc1378a6	-0.009000933
133	0x3dc53294	0.09628788
134	0xbcb35270	-0.021889895
135	0xbca70b04	-0.020390995
136	0x3c3d8d83	0.011569384
137	0xbc500654	-0.012696821
138	0xbb998d53	-0.0046860366
139	0x3d3a7581	0.045522217
140	0xbd38911f	-0.045060273
141	0xbc47fbbd	-0.012206015
142	0x3c983d43	0.0185839
143	0x3c19c6e4	0.009385798
144	0x3c97e2ad	0.018540705
145	0xbc08cd61	-0.008349747
146	0xbc070e5e	-0.0082431715
147	0xbc5dba42	-0.013533177
148	0x3b9aae3c	0.0047204774
149	0xbc63b835	-0.013898899
150	0x3c5568d0	0.0130254775
151	0xbca03563	-0.019556707
152	0x3d6bf40f	0.0576058
153	0x399746f0	0.00028853817
154	0x3c99af92	0.018760476
155	0x3cc18c54	0.023626484
156	0x3dcd3f6b	0.10021862
157	0x3d04f144	0.03245665
158	0xbba55004	-0.005044939
159	0xbd0f21b4	-0.03494425
160	0xbc912932	-0.017719839
161	0x3cf4c814	0.029880561
162	0xbcc9db60	-0.024640739
163	0x3c267207	0.010159022
164	0x3ce07240	0.027398229
165	0xbd2f0c0c	-0.0427361
166	0x3cd8433e	0.026399251
167	0xbcda89e0	-0.026677072
168	0xbc7c526f	-0.015400513
169	0x3c6713c3	0.014103833
170	0xbba5e1e8	-0.0050623305
171	0x3c80a0b3	0.015701627
172	0x3cede416	0.029039424
173	0x3c914752	0.017734203
174	0x3c1751cb	0.00923581
175	0xbd12fcce	-0.035885625
176	0x3cf85d3c	0.030317895
177	0xbcdad762	-0.02671403
178	0xbc9d7af7	-0.019223673
179	0xbc2f779e	-0.010709671
180	0xbb93d676	-0.0045116497
181	0x3ca9b2b8	0.020715103
182	0xbc958040	-0.01824963
183	0x3d5e1528	0.054219395
184	0x3d493a4b	0.049127858
185	0xbc904b45	-0.017614016
186	0x3c9dd040	0.01926434
187	0x3cb4490b	0.022007486
188	0xbd410ef5	-0.047133405
189	0x3ca1f375	0.01976941
190	0x3d9af00b	0.07565316
191	0xbc502c64	-0.012705896
192	0x3d2295ce	0.039693646
193	0x3d7eef2c	0.06223981
194	0x3dbc898b	0.09205922
195	0xbc8c1f72	-0.017104838
196	0xbca5d89e	-0.020244893
197	0x3c85bf90	0.016326696
198	0x3ceeb96f	0.029141156
199	0xbd23fb86	-0.040034793
200	0x3d546848	0.051857263
201	0xbcbd7e2e	-0.023131456
202	0xba4fbe78	-0.00079248054
203	0xbcc47e7d	-0.023986096
204	0x3d662688	0.05618909
205	0xbc5e420c	-0.0135655515
206	0xbd083406	-0.03325274
207	0x3c7fc49f	0.015610843
208	0x3bc78730	0.0060891137
209	0xbcace895	-0.021106998
210	0x3c965702	0.018352035
211	0x3c32a948	0.010904618
212	0x3ce50277	0.027955277
213	0x3c91c87c	0.017795794
214	0x3d02703c	0.031845316
215	0xbcce9e13	-0.02522186
216	0x3b6dee87	0.0036305503
217	0xbc640680	-0.013917565
218	0x3d8eb3f8	0.0696792
219	0x3dc35cc1	0.09539176
220	0x3caa0f4e	0.020759251
221	0x3c61341b	0.013745333
222	0x3c8c34e4	0.017115064
223	0xbcc3786c	-0.023861133
224	0xbcce26a6	-0.025164913
225	0x3c60f41c	0.013730075
226	0x3bdc5488	0.006723944
227	0x3c060989	0.008180984
228	0x3c9d153c	0.019175164
229	0x3d001bc8	0.031276494
230	0xbcc6b63d	-0.02425682
231	0xbc55dd2c	-0.01305322
232	0x3ca9b87a	0.020717848
233	0x3d816e6d	0.0631989
234	0xbcb18b08	-0.02167274
235	0xbc9f79ac	-0.019467197
236	0xbbfac654	-0.007653037
237	0x3bd5b9fd	0.0065224157
238	0xbca5f2d4	-0.020257391
239	0x3da54504	0.08069804
240	0xbb946bc1	-0.004529447
241	0x3c553b30	0.0130146
242	0x3cf4b0d2	0.02986947
243	0xbc88a7aa	-0.016681511
244	0xbc5f7436	-0.013638547
245	0x3dcc1a22	0.09965922
246	0xbc8424f5	-0.016130904
247	0x3c5ada74	0.013357747
248	0x3ac459e6	0.0014980405
249	0x3cf41b2a	0.02979811
250	0x3cfff4a5	0.031244585
251	0xbcaaec66	-0.020864677
252	0xbb8c8b19	-0.0042890427
253	0x3cdb7170	0.02678749
254	0xbc99c273	-0.018769478
255	0xbd556ae0	-0.052103877
