Model.pth (torch, 197851 bytes, 20 tensors)

linear_1.weight f4 [256, 18]
000000 4d fc a0 3d 0b cd 29 bd 15 87 e2 bd 87 76 95 be
       0.078606226 -0.04145531 -0.11060921 -0.29191992
000010 79 c0 89 bd 08 a7 a5 3e 2f 8c bf bd 2b e0 bd 3e
       -0.06726164 0.32353997 -0.0935291 0.3708509
000020 4f 96 f2 3e da b7 05 bf 69 ab a7 be d4 16 4e bc
       0.473803 -0.5223366 -0.32747963 -0.012578685
000030 1f 4c 81 be f5 3b 7c bd cb de 05 bf 48 d0 c9 3d
       -0.25253388 -0.061580617 -0.5229308 0.098541796
000040 d9 65 18 3d 18 14 90 be bd 53 27 3d 87 8f fb be
       0.037206504 -0.2814033 0.040851343 -0.4913294
000050 1c 6e 59 be d1 cd 2c be 9a 04 e3 3d e8 e0 d1 3e
       -0.2123341 -0.16875388 0.11084862 0.40991902
000060 f3 20 5b 3e 7d 65 9d 3e e3 72 d5 3e 63 35 15 be
       0.21399288 0.30741492 0.41689214 -0.14571147
000070 52 97 8a be 43 e5 28 be 59 b0 ab be b8 ac cb bc
       -0.27068573 -0.16493706 -0.3353298 -0.024862632
000080 d7 3d 1e be be 32 8e bd 7b 44 70 be 10 3f 3e be
       -0.15453278 -0.06943272 -0.23463623 -0.18578744
000090 41 95 3f 3d 25 69 0c 3e 60 8d e0 3e 99 14 61 bf
       0.0467732 0.13711984 0.4385786 -0.87922055
0000a0 f8 d6 fb 3e 5d f4 37 3f a2 e9 be bf 73 70 59 3e
       0.49187446 0.71857244 -1.4915049 0.21234302
0000b0 96 c3 0b bf 55 a6 2a bf e5 8e 13 bf db 40 20 3f
       -0.54595315 -0.6666005 -0.57639915 0.6259896
0000c0 8a 4c cc 3f c4 02 15 be 9b 9f 31 be 8e 8a 8e 3d
       1.5960858 -0.14551836 -0.17346041 0.06960021
0000d0 e9 16 e0 3e 23 4d b8 bf 83 44 36 bd c1 12 d7 3c
       0.4376748 -1.439854 -0.04449893 0.02625406
0000e0 f1 ab 87 3c a8 cb bc 3e 1b 23 c7 ba 3a dd c8 bd
       0.01656148 0.36874127 -0.0015192957 -0.098078206
0000f0 78 0d b2 3e 1a 98 ca be 76 85 22 3c c5 cf 35 3e
       0.347759 -0.3956917 0.009919515 0.17755039
000100 5b a6 1f 3e 6e 5f 83 bd 5c fa 63 3e c4 88 9a 3c
       0.15590803 -0.06414686 0.22263473 0.018864043
000110 18 47 90 3e c8 1f 11 bd 12 bf 4a 3e ac 3e 10 be
       0.2817924 -0.0354307 0.1979945 -0.14086407
000120 68 0c 0a bd f4 fe 02 3f 3b 49 cb 3d d5 c5 d7 be
       -0.033703238 0.5117028 0.09926077 -0.4214312
000130 92 c1 11 3d 5d 68 14 40 7a 87 ef 3e f0 4b 88 3e
       0.035584994 2.3188698 0.46783048 0.26620436
000140 a0 6d 80 3f 7f 35 d5 be 4e 2e d2 be 5c 63 0f c0
       1.0033455 -0.41642377 -0.41050953 -2.2404394
000150 ed 3d 99 bf 0d a1 53 bf 6d ac 06 c0 5b a7 e5 3d
       -1.1972023 -0.8266762 -2.104274 0.11213561
000160 e8 1c c2 bc dd e6 25 bf 82 21 bf 3d c6 5d 4a 3e
       -0.023695424 -0.64805394 0.09332563 0.19762334
000170 1e b6 7a be c8 32 e9 be 96 d4 cd 3e 36 68 c7 3f
       -0.24483535 -0.45546556 0.40201253 1.5578678
000180 c2 78 a6 3e 51 43 44 3f 4a 35 9e 3f 93 2a 0c bd
       0.32514006 0.76665217 1.2360013 -0.03422029
000190 95 f3 d0 be f3 2f 92 bf 92 04 88 3e 64 31 1c bf
       -0.40810838 -1.1420883 0.26565987 -0.61012864
0001a0 28 a9 99 bf 06 7c 80 3e c6 fb 50 3e 26 51 b8 be
       -1.2004747 0.25094622 0.20408544 -0.3599941
0001b0 d7 d2 be bd 54 87 eb bd e0 81 f0 3d 0c 26 38 be
       -0.09317558 -0.11500421 0.11743522 -0.17983264
0001c0 76 a4 c7 bd f9 94 86 be 3b d3 09 3d d7 ad 67 bd
       -0.09748165 -0.26285532 0.03364871 -0.05656227
0001d0 f2 f6 17 be 60 95 83 3e 1d 92 98 3d 52 be 21 bc
       -0.14840296 0.25699902 0.07449744 -0.009872036
0001e0 4e 43 56 bd 4b b7 78 3e f6 8e 08 3c 65 c6 6c be
       -0.05231028 0.2428867 0.008334866 -0.23122557
0001f0 da 5d 12 3d ac 34 33 3e 64 20 30 3d 0b b6 e9 be
       0.035734035 0.17500561 0.04299964 -0.456467
000200 96 3a d3 bd 01 39 e4 bc 02 c2 b8 3e 42 71 e2 3e
       -0.10313909 -0.027859213 0.36085516 0.44227034
000210 d4 24 d0 bd b6 ac 0a bd 7b 32 9d 3e fa 8e 80 be
       -0.101632744 -0.033856116 0.30702576 -0.25109082
000220 d5 18 d3 be 78 02 26 be 67 ed 61 be 68 9f 0c bf
       -0.41229883 -0.16211879 -0.22063218 -0.54930735
000230 39 1b 93 be 4c 99 b6 be 0d a1 2a 3e 8b 99 a7 bd
       -0.28731707 -0.3566383 0.16662998 -0.08183583
000240 6b ad 8b bd 83 33 04 bf a0 c2 3a 3d 8c de 80 3e
       -0.06820186 -0.516411 0.045595765 0.2516979
000250 b9 96 0b 3e df 88 73 bf f0 fd cb 3d a6 a2 87 3d
       0.13631715 -0.95130724 0.09960544 0.066228196
000260 9a 0a ab be 13 52 03 3e bd bb 47 3d 00 57 c3 3f
       -0.33406526 0.12824278 0.048763026 1.5260925
000270 2e 39 20 bd 60 4f 10 be 6f fd 63 3e f1 ca 72 be
       -0.03911703 -0.14092779 0.22264646 -0.23710229
000280 6f eb b6 bc e8 c8 1f 3e 8e 7c 53 3d de 19 bd 3e
       -0.02232906 0.15603983 0.051632456 0.36933798
000290 e6 2a 9d bd 89 5b b6 be 4e e7 20 bd 9f 0e c9 3e
       -0.07674198 -0.3561671 -0.03928309 0.39268968
0002a0 88 1e a4 bf ea 77 14 3e e4 0f 16 bf f2 de a5 3d
       -1.2821817 0.14498869 -0.58618 0.08099164
0002b0 78 87 08 be c3 11 0b 3f 68 94 32 3f b9 2b b9 bd
       -0.13332927 0.5432398 0.697577 -0.090415426
0002c0 cc d8 15 bf d1 ee ea 39 d7 c1 6e 3e c0 ef 55 bf
       -0.5853393 0.0004480989 0.23316132 -0.83568954
0002d0 87 0d 0e 3e 1c c8 dd 3e 1f f9 72 be 00 ee 99 3d
       0.13872348 0.43316734 -0.23727845 0.07516098
0002e0 c8 d2 a5 be fa 0a b7 3e c2 df bd 3a d8 ca 6b bd
       -0.32387376 0.35750562 0.0014486241 -0.057566494
0002f0 3c 51 19 3e 31 51 62 3d 8e e0 2f be 2e 18 74 3d
       0.14972395 0.05525321 -0.17175505 0.059593372
000300 f8 53 f0 bc 61 13 03 3e b8 d1 b1 be 57 8f 08 3e
       -0.029336914 0.12800361 -0.34730315 0.1333593
000310 40 7d 87 be 89 d3 71 be b3 8f 9f bd aa e0 3c bf
       -0.26462746 -0.2361585 -0.0779108 -0.7378031
000320 15 da 7c 3e 0a 1d 21 be b5 03 2c 3c f5 66 b9 be
       0.24692567 -0.15733734 0.010498931 -0.36211362
000330 66 66 0b 3f 53 12 ce 3e 72 91 45 be 27 7f 75 be
       0.5445312 0.40248355 -0.19293764 -0.23974286
000340 fb ec 88 bd 43 c7 00 bb 6b 0e 6d be f6 7c 84 bd
       -0.066858254 -0.001965002 -0.23150031 -0.06469147
000350 aa 0c c2 3e 4d 8f a3 be 9f 98 8c 3e fa b5 82 3e
       0.37900287 -0.31945267 0.2746019 0.25529462
000360 1d ee 4f bd e4 fb 59 be 39 c9 ce bd 71 57 6f 3d
       -0.050764192 -0.21287495 -0.10096974 0.058433
000370 23 9c 85 be 45 a9 2a bf 02 8a 7c 3f 86 62 28 be
       -0.26095685 -0.66664535 0.98648083 -0.16443834
000380 e8 d4 0d 3f 20 25 00 3e ab ac 23 3e e6 6a 8f be
       0.55402994 0.12514162 0.15983836 -0.28011245
000390 db b3 d1 bf 47 76 d4 3d d6 6a 2b 3e 18 3f c1 3c
       -1.6383013 0.10374122 0.16739973 0.023589656
0003a0 c9 4b 9c bd 6a db 55 3f cf 83 a1 bd 6e 7e 66 bd
       -0.07631642 0.83537924 -0.078864686 -0.056272916
0003b0 18 73 61 3e 2a 14 09 bf b9 14 6e 3e d2 ab 71 3f
       0.22016561 -0.5354639 0.23250093 0.944028
0003c0 c9 8a 96 bf 29 27 b8 3e d5 78 49 3d 7f f8 c1 be
       -1.1761104 0.35967377 0.0491875 -0.378849
0003d0 c8 da 37 bf 74 39 1f 3f ea ca 7c 3f 0c e1 f1 bd
       -0.7181821 0.6219704 0.9874712 -0.118105024
0003e0 61 28 09 bf f8 13 32 be 40 67 78 bc 4c fb 33 bf
       -0.5357724 -0.1739043 -0.0151613355 -0.70305324
0003f0 b6 20 e6 3c f3 cc c1 3e be d3 a0 3e 7d ae a5 be
       0.02809177 0.37851676 0.31411546 -0.32359686

linear_1.bias f4 [256]
000000 03 9f 24 3d e9 1a af bd 0c 84 f1 3d 39 9a af bd
       0.040190708 -0.085500546 0.11792764 -0.085743375
000010 3d 8b 67 3e 42 24 5e be 3d 15 0d be e3 a6 34 3e
       0.22611709 -0.21693519 -0.13777633 0.17641787
000020 ef b6 0d be 16 e4 d3 bd c7 18 c5 bd 64 f4 c9 3d
       -0.13839315 -0.10346238 -0.096238665 0.09861067
000030 b7 f8 c9 3d 5c 4c 3f be 1a c9 79 3d 5d da ad 3d
       0.09861892 -0.18681473 0.0609828 0.08488915
000040 6a 8c c3 bd 42 7b d5 bd 0a 7a 6c 3e d5 e2 52 be
       -0.09548266 -0.104239 0.23093429 -0.20594342
000050 cd 9d 14 bd bd d5 9f bd a4 8e ba bd e4 dc 07 be
       -0.036283303 -0.07804439 -0.09109238 -0.13267857
000060 d8 01 56 3e 07 f0 12 3d 02 27 95 bd a4 71 6c 3e
       0.20899141 0.03587344 -0.07282831 0.23090225
000070 0f e8 5f be 04 c2 a8 3d d7 aa 37 3e 44 af 55 3c
       -0.21865867 0.082401305 0.17936264 0.013042275
000080 57 12 37 3e 65 8e 55 be 40 78 8a 3d c2 bd 0a bd
       0.1787809 -0.208551 0.06761217 -0.033872373
000090 aa b9 3f be dc 59 e2 3d 4a 8a 18 3e f4 8e 9a bc
       -0.18723169 0.110522956 0.14896503 -0.018866993
0000a0 8d ec 2c bc 40 34 98 3d 4a bf 64 bd 84 94 33 bd
       -0.010554445 0.07431841 -0.05584649 -0.043842807
0000b0 92 91 01 be 65 26 e3 bd f8 7b b3 3b b2 21 95 bd
       -0.12653187 -0.110913076 0.0054774247 -0.072818175
0000c0 97 72 09 be b1 63 6d 3e a2 f4 6a 3d 40 e2 49 bd
       -0.13422619 0.2318256 0.057362206 -0.049288034
0000d0 19 68 2c 3e 85 83 95 3d 7b ae 27 be 44 58 f1 bd
       0.16836585 0.07300476 -0.16375153 -0.117844135
0000e0 01 fa 92 bd 67 b2 b4 3d e3 12 f2 bc d2 81 1b be
       -0.07176591 0.0882309 -0.029550022 -0.15186241
0000f0 18 f5 70 bd 88 aa 5a 3e a9 90 e6 bd 82 58 ba bd
       -0.05882749 0.21354115 -0.112580605 -0.09098913
000100 e6 e4 0f be c0 93 4c be d3 56 be bc 1a ec 0e 3d
       -0.14052162 -0.19978237 -0.02323476 0.034893133
000110 47 f3 56 3e dc 0c 7a bc ff 27 45 be da 1c 68 3e
       0.2099124 -0.015261855 -0.19253539 0.22667256
000120 30 4f ad bd 37 e6 05 3d e0 8b 42 3e 3a d7 8c 3d
       -0.084623694 0.032690253 0.1899867 0.06876989
000130 48 46 87 3d c5 f1 6e 3e ea 6f 23 3e 88 a6 31 be
       0.06605202 0.23334415 0.1596066 -0.17348683
000140 11 09 5f 3e 35 cd 66 bc 0d 7f 62 bd f9 97 05 be
       0.21780802 -0.014087011 -0.055296946 -0.13046254
000150 ce 28 29 be 2c cf fc bd 14 6b 42 be 0c 2a 65 3c
       -0.16519472 -0.123442024 -0.1898616 0.013987076
000160 40 59 6c be 8b 6b d7 bd 15 53 5a be ac 35 6f be
       -0.23080921 -0.10518559 -0.21320756 -0.23360318
000170 a8 17 93 bd dc 1c 4d be 8c d4 3d 3e 72 63 6f be
       -0.071822464 -0.2003054 0.18538111 -0.23377779
000180 83 86 0e be 3a f1 70 be 81 e9 13 be 3f ba 55 be
       -0.139185 -0.2352952 -0.14444543 -0.20871828
000190 d1 5e 19 bd 58 9b 04 3e 51 d8 fc 3d 74 f1 c6 3c
       -0.03744394 0.12949884 0.123459466 0.024285056
0001a0 e3 8e 2c 3d f7 bb da bd b3 b5 07 3e 4a 57 48 3e
       0.042128455 -0.10680383 0.13252907 0.19564548
0001b0 09 69 88 bd 28 33 11 be 2b d3 69 3b 9f e2 97 bb
       -0.06660659 -0.14179671 0.0035678844 -0.0046351696
0001c0 a0 d6 1e 3d 72 fa 3a 3e a2 0e f0 bd f0 5b 0d bd
       0.0387789 0.182596 -0.11721541 -0.034511507
0001d0 9c 29 16 be 66 ba cf bd a9 2e 13 bd f7 ea 0a bd
       -0.1466431 -0.101429746 -0.03593317 -0.033915486
0001e0 d7 d8 6a bd 73 50 42 be db 41 92 3c e4 eb 12 3e
       -0.0573357 -0.18976001 0.017853668 0.14347798
0001f0 5e 00 a4 bd 14 de 3d be cd d5 18 bc c9 33 87 bd
       -0.080078825 -0.18541747 -0.009328318 -0.06601674
000200 ce d8 2c 3e 04 d5 8e bd 59 d9 c6 bc 01 f3 bb 3d
       0.1687958 -0.06974223 -0.024273561 0.09177209
000210 43 76 a7 bd 16 21 38 be 92 fa c3 3c eb 86 f9 bd
       -0.081768535 -0.17981371 0.023923192 -0.12183937
000220 db fb 2c 3b fa 09 3a be 36 9e 01 be 11 aa fb 3d
       0.0026395235 -0.18167868 -0.12658009 0.12288297
000230 d2 af 3c 3e f4 7f 14 be 26 93 92 3d 80 87 1d 3e
       0.18426445 -0.14501935 0.071569726 0.1538372
000240 f1 bb 70 3e a3 31 89 3b 91 29 a8 bc 09 0b 07 3d
       0.23509194 0.0041868254 -0.020527633 0.03296951
000250 d3 72 41 3e 97 79 95 3c 91 b6 0f 3e 88 da 05 3c
       0.18891458 0.018246455 0.14034487 0.008169778
000260 48 93 af bd f1 99 ef bd 98 eb dc bc d8 ee 49 3e
       -0.085730135 -0.11699284 -0.026967809 0.19720018
000270 64 14 a9 bd 4a ae 5f be 3d 20 3c 3e 59 f1 4a be
       -0.08255842 -0.2184383 0.18371673 -0.1981863
000280 29 77 ad bb 89 57 61 bd 5d b4 24 be 91 b0 a9 bd
       -0.005293746 -0.05501512 -0.16084428 -0.082856305
000290 19 ad 9c 3d ea 9a 31 3e 26 1e a5 bd c2 28 59 37
       0.07650203 0.17344251 -0.08062391 1.2943698e-05
0002a0 2a 23 12 be 18 45 7a bd 48 80 e3 3d db 36 18 3e
       -0.14271227 -0.06110105 0.11108452 0.14864676
0002b0 67 62 4c bd 52 2c 51 3e 9b 2f 34 be 81 0b 38 3e
       -0.04989853 0.20427063 -0.17596285 0.17973138
0002c0 b9 cd 1b 3e 40 35 44 bd d2 f7 c0 3d 3c 7d 4c 3e
       0.15215196 -0.047902346 0.09422268 0.19969648
0002d0 3e 57 33 3d 30 f4 5f 3d b8 a2 5d be 08 1c 47 3d
       0.043784373 0.054676235 -0.21644104 0.048610717
0002e0 1c 38 47 be 19 7e e1 bc 37 f3 15 3e 1b 7e 06 3d
       -0.19454998 -0.027525948 0.1464356 0.032835107
0002f0 04 ee 0c 3e 61 72 42 be b5 55 55 3e 18 6f 43 3e
       0.13762671 -0.18988945 0.20833476 0.19085348
000300 57 96 3a 3e 6c fa e2 bc 9f 63 64 be 27 17 59 bd
       0.18221413 -0.027707301 -0.22303627 -0.053000595
000310 25 80 9d 3d 73 99 65 3d 20 24 97 bc 67 bc 18 be
       0.07690457 0.056054544 -0.018449843 -0.1491562
000320 af 9e cf ba ef 11 6a 3e 6b 64 6e 3e 69 18 f2 3c
       -0.0015840138 0.22858404 0.23280494 0.029552655
000330 02 85 16 bd 85 cc f2 bc ed 79 00 be 12 a7 d2 bd
       -0.03674794 -0.029638538 -0.12546511 -0.102857724
000340 97 f7 92 3d 6b 91 2c 3e 75 70 86 bd 62 8b 9e bd
       0.0717613 0.16852348 -0.06564418 -0.07741429
000350 2c 03 fd bd 42 fc eb 3d fe 26 c1 bd d1 b1 6c 3e
       -0.123541206 0.11522724 -0.09431265 0.23114707
000360 ea c9 59 bd 08 26 19 be 16 22 64 bd 44 e7 2f be
       -0.053171076 -0.14955914 -0.05569657 -0.17178065
000370 39 1d d8 3d ca c9 0d 3e 8d 3a 40 3e 84 5e 22 be
       0.10552449 0.13846508 0.18772335 -0.15856367
000380 d2 9d 0d be 96 3c 20 3e 39 95 6c be b5 d0 77 bd
       -0.13829735 0.15648112 -0.23103799 -0.060501773
000390 0a 94 52 bb ee 9d b5 bd a5 ad ca bd 66 2c 1a be
       -0.0032131695 -0.08868013 -0.09896401 -0.15055999
0003a0 67 b7 9a 3d c9 d1 26 be db c0 49 be 0b 14 07 3d
       0.075545125 -0.16290964 -0.19702475 0.0329781
0003b0 5d d5 72 3d 53 8e 4c be 9b ca b5 bd f1 69 3c 3e
       0.05928551 -0.19976167 -0.088765346 0.18399788
0003c0 fd f3 56 bd ac 4f 5f bd e4 ce 58 be 3c ea 3e be
       -0.05247878 -0.05451934 -0.21172673 -0.18644041
0003d0 96 41 ff bb a8 17 1c 3e d8 42 4e 3e 75 23 5f 3e
       -0.007789801 0.15243399 0.20142686 0.2179087
0003e0 6e cf 45 3e 45 92 0a be 10 8c 67 be c8 f6 bf bd
       0.1931741 -0.1353236 -0.22612023 -0.09373242
0003f0 ed 6e 2f bd 2e cc a0 bd 85 84 cb 3d f0 b4 21 3c
       -0.042830396 -0.07851444 0.099373855 0.009869799

linear_2.weight f4 [128, 256]
000000 64 94 14 bd ed 63 85 3c 95 7c 91 3b 91 96 3e bc
       -0.03627433 0.016283 0.0044399 -0.0116325775
000010 bb 26 a4 bd 7a b1 94 bd be 29 d1 bc 6e 7a d8 ba
       -0.080152 -0.072604135 -0.0255326 -0.0016515979
000020 3c 81 e8 3c a2 bf 85 bc 70 dd 88 3a 12 a9 3e 3d
       0.028381936 -0.01632673 0.001044197 0.046547957
000030 98 dd 38 3d 94 07 8a bd 2f f4 f0 bc 52 09 8c bc
       0.045133203 -0.06739727 -0.02941331 -0.017094288
000040 11 3d 63 bd a6 09 65 bd 89 4b 40 3c d6 44 57 3d
       -0.05547816 -0.055917405 0.011736759 0.05255588
000050 d0 96 b9 bc 6c 38 55 bb 59 1d 8a bd c9 05 99 bc
       -0.02265492 -0.003253485 -0.06743879 -0.018679516
000060 68 3a 57 bd f7 f2 c5 3c ba 39 f4 3c 79 75 b5 3c
       -0.052545935 0.024163706 0.029812682 0.022150742
000070 9f 58 6d bd 21 f7 87 3c f2 40 17 3d 9f e6 d3 bc
       -0.057945844 0.016597332 0.03692717 -0.025866805
000080 77 a3 66 bd a2 48 ef 3b 06 b1 83 3a 34 10 6f bd
       -0.056308236 0.0073023597 0.0010047264 -0.058365062
000090 62 9d 87 bd ac 36 61 3d cf 18 dc bc ce 16 fd 3c
       -0.06621815 0.05498378 -0.026867298 0.030894663
0000a0 00 c5 49 bd bc 69 ed bc 2b 60 8b bb 93 e6 a0 3c
       -0.04926014 -0.028981082 -0.0042534075 0.019641196
0000b0 de 98 30 3d cd e7 a1 bd 3e 47 8a 3d 47 a8 94 3c
       0.043114536 -0.079055406 0.067518696 0.018146647
0000c0 41 14 9d bd c5 cb e6 bc 6f 89 88 3d 50 02 18 3d
       -0.07669879 -0.028173337 0.066668384 0.03711158
0000d0 c6 4d 69 3d e5 87 42 3d 17 93 96 bc 08 40 2b 3d
       0.056958936 0.04749288 -0.018380685 0.04180911
0000e0 38 7d c4 3c 18 61 68 bd 28 bf 40 3c b6 5c 3a 3d
       0.02398549 -0.05673322 0.011764325 0.045498572
0000f0 79 52 71 3d 60 5d 3b bd 1b 07 ba 3c 7e fa 9a bd
       0.058916543 -0.045743346 0.022708466 -0.07567309
000100 e5 83 85 bc ae 9e 4f 3c b6 83 c8 bd 6b 92 ff b9
       -0.016298244 0.0126721095 -0.09790747 -0.0004874648
000110 ad 34 30 3d 0b 79 dd bc 82 3a f9 bc 87 6e d4 bb
       0.043018986 -0.027035257 -0.030423407 -0.0064829024
000120 76 80 05 3d 14 29 02 be 82 89 b7 bc e6 29 42 bd
       0.032593213 -0.12710983 -0.022404436 -0.04740324
000130 f6 09 94 ba f0 a1 ea 3c 55 12 bb 3b c0 b5 b8 3d
       -0.0011294472 0.028641671 0.0057089725 0.09019041
000140 cb ec 2b bc 6c 17 b6 bc fa 4b 83 bd 5d 44 f9 bc
       -0.010493468 -0.022227965 -0.06410976 -0.030428106
000150 83 3e 30 bc 35 68 1e 3d 02 f3 41 bd 4e e5 56 3d
       -0.010757091 0.0386736 -0.04735089 0.052464776
000160 d2 8e 9f 3d b4 f2 8e 3b 8c 65 84 3c 05 10 47 bd
       0.07790913 0.0043624286 0.016161703 -0.04859926
000170 af 3d 53 3c 88 50 82 bc 3d be 2e bd 7b 00 86 bd
       0.0128931245 -0.01590754 -0.042661894 -0.065430604
000180 39 33 31 bd e5 54 81 bc eb ca 53 bd 38 bb 50 bc
       -0.04326174 -0.015787551 -0.05170719 -0.012739949
000190 2c 36 e1 bc 71 a8 a7 bd 19 0b af bb ae 62 f0 bc
       -0.027491651 -0.081864245 -0.005341899 -0.02934393
0001a0 91 7f de 3b 73 39 8d bc 46 e8 2c 3c b4 3f 99 bc
       0.0067901094 -0.017239308 0.010553425 -0.018707134
0001b0 27 1f 55 3d e1 34 b7 bc d7 c3 44 3d dd 9b e2 bd
       0.052031662 -0.022364082 0.04803833 -0.11064885
0001c0 27 80 aa 3b 75 67 50 3b f2 97 66 bd 40 eb f6 bd
       0.005203265 0.0031799946 -0.05629725 -0.12056589
0001d0 3b 21 71 3c 52 87 c2 bd 6a 92 96 bd f2 95 81 3d
       0.014717395 -0.094984666 -0.07352145 0.06327428
0001e0 56 f3 57 3d f4 50 4d bd 8b eb 73 bd 54 18 9e bd
       0.052722298 -0.05012603 -0.059550803 -0.07719484
0001f0 4c 7d 11 bd 31 68 b8 bb a8 77 a7 bd 36 64 09 bc
       -0.035519883 -0.005627655 -0.081771195 -0.008385709
000200 84 20 6b 3d 2e 29 a1 3c 04 4a 2d bd c6 ea 0e 3d
       0.057404056 0.019672956 -0.042306915 0.034891866
000210 66 e6 6c bd 1d b3 e9 3b 69 92 34 bd 98 6f 45 bd
       -0.057836913 0.0071319477 -0.04408494 -0.048202127
000220 a8 ac 4e 3d be 44 bc ba c4 dc 05 bd 6b d7 5f bd
       0.050457627 -0.0014363748 -0.03268124 -0.054648798
000230 87 82 34 3d 9d e7 aa 3c fb 52 a3 bd bc b7 22 bd
       0.044069793 0.020862395 -0.07974812 -0.039726004
000240 2d 06 a2 3c bb c3 b2 3d 2f fc 52 bd 18 f2 1d 3c
       0.019778335 0.08728739 -0.051510032 0.009640239
000250 4d 50 b0 bd 60 d6 48 3d 40 ae 94 bd 79 81 70 bd
       -0.08609066 0.04903257 -0.07259798 -0.058717225
000260 57 15 48 3d b1 e3 5a bd 10 d8 9d bd 66 16 89 bd
       0.048848476 -0.0534398 -0.07707226 -0.06693725
000270 41 c2 c9 3a f3 c3 e2 3d a2 5e 26 bd ea 6f 07 3d
       0.0015392975 0.110725306 -0.040617593 0.033065714
000280 4e da 00 bb 44 7c 86 bd 10 c3 db bd ef a3 9a bd
       -0.001966137 -0.065666705 -0.107305646 -0.07550799
000290 cd ef f9 3c a7 2a ef bd b7 12 9c bd 25 66 59 3a
       0.030509854 -0.11678057 -0.07620757 0.0008293114
0002a0 e9 60 c7 3d 32 50 32 bd 19 d4 c7 3c 03 70 46 3c
       0.09735281 -0.04353351 0.024393128 0.012111667
0002b0 cb e1 05 bd 34 dd 9f bb d6 95 85 bd a3 b8 8e bd
       -0.032686036 -0.0048786644 -0.065227196 -0.069688104
0002c0 dd 59 c8 3b b9 74 72 3c 5b b5 9b 3d b2 dd 58 bd
       0.006114228 0.014798337 0.0760295 -0.0529458
0002d0 33 bb 0b 3d a5 91 59 bd c2 a0 e6 3c 86 85 34 bd
       0.034114074 -0.053117413 0.028152827 -0.04407265
0002e0 ef 2c 04 bd fa 99 10 3b 6a d8 80 bd 7b 83 02 3d
       -0.032269415 0.0022064433 -0.06291278 0.03186367
0002f0 55 7b 82 3d 37 4e 87 3b 3c 65 3e 3d 85 1c a3 bd
       0.0637118 0.004129197 0.046483263 -0.07964424
000300 2e e9 8d bd f5 1a b3 bd 99 ae a4 3c 31 39 8c 3d
       -0.06929241 -0.08745376 0.020102786 0.06846846
000310 b3 64 e3 bd c0 c1 07 3d 40 a2 d1 bd 83 f4 7d 3d
       -0.11103191 0.03314376 -0.10236025 0.062000763
000320 b2 9c 7c bd 7a 6c 87 bd 11 a3 b8 bc 5c b0 ad b9
       -0.061672874 -0.06612487 -0.022538694 -0.0003312853
000330 71 35 57 bd 80 74 2c bd f5 0d 91 bc 17 a7 e0 bb
       -0.0525412 -0.04210329 -0.01770685 -0.006855856
000340 8f 35 35 bd d7 40 5c 3d 5f 4d 1a 3b b4 23 58 39
       -0.04424053 0.053772774 0.0023544652 0.00020612666
000350 02 47 8c 3d b3 c4 7f 3d e2 ac 8a bc fe 62 fb bc
       0.06849481 0.062443446 -0.01692814 -0.030686852
000360 4d fc 01 bc 7e 42 ed 3c 5a dd 3e bd df a3 58 bd
       -0.007933688 0.02896237 -0.046597816 -0.052890655
000370 1d 47 e7 3c 4a 3e b7 3d 24 fe 83 bd 7d 69 80 bd
       0.028232152 0.089474276 -0.06444958 -0.0627012
000380 cb d4 41 bd ae b9 92 3c c3 d5 c8 bc 5e dd 41 3e
       -0.047322076 0.017910805 -0.024515992 0.18932101
000390 e3 5e 67 bc a7 dc bd bd d0 af c8 3c 57 b7 7d bc
       -0.014121744 -0.09270602 0.024497896 -0.015485606
0003a0 b5 97 08 bd 4c d0 b8 3a 2b bb ab 3c f0 24 c9 bd
       -0.033347804 0.0014100163 0.020963272 -0.098214984
0003b0 a8 84 4e bd 90 d6 6d 3c 2a 13 a7 bd c7 aa 8b bd
       -0.05041948 0.014516488 -0.08157952 -0.068196826
0003c0 c6 9b 16 3d 1c 3a 85 bc 22 f4 40 bd 71 2c 6d bd
       0.03676965 -0.01626306 -0.047107823 -0.05790371
0003d0 ae 06 7d bd 82 a9 92 3c ac c7 0e 3d 66 53 a6 bd
       -0.06177395 0.017903093 0.03485839 -0.08121376
0003e0 a1 cb 75 bc 25 ed b3 bd 03 a0 4a 3d 2e 36 d8 3c
       -0.015002162 -0.08785466 0.049469005 0.026393022
0003f0 20 e5 0e bd 67 3a 81 bd b1 c8 d2 3c 19 c7 a5 3d
       -0.03488648 -0.063099675 0.025730463 0.080946155

linear_2.bias f4 [128]
000000 3e 38 2c bd 6a f7 b6 3b 8e de 6b 3b d9 0a ac bb
       -0.042045824 0.0055836933 0.0035990807 -0.0052503166
000010 4a 51 64 bc e5 87 16 bd e4 3b ac 3c 96 82 9c bc
       -0.013935396 -0.036750693 0.021024652 -0.019105237
000020 89 28 65 3d 0f ea be bc c3 10 33 bc cc 03 53 bd
       0.05594686 -0.023304967 -0.010929289 -0.051517293
000030 7e ab 16 bc 1f 93 19 b9 6c 2c 1d 3d fe d3 65 bc
       -0.00919616 -0.00014646024 0.038372442 -0.014027594
000040 f8 dd 4e 3b 26 3b 46 bd 23 10 27 bd 3e a9 b5 bc
       0.003156541 -0.048396252 -0.040786874 -0.022175428
000050 94 3b 5f bd 6f 56 a2 3a 45 2c e6 3c fd 15 d3 bb
       -0.054500178 0.0012385378 0.028097281 -0.00644183
000060 06 06 54 bc dc 2b 4a bc 20 85 4e 3d 4d 72 75 3d
       -0.012940889 -0.012339558 0.050419927 0.05992346
000070 7c aa 21 bd aa 6c 40 3d 94 29 90 bc e2 2f 53 3d
       -0.039469227 0.04697863 -0.017597951 0.051559336
000080 0c 30 21 bd 64 ab 9d bc 49 b8 56 bd 4f 0b 60 bc
       -0.03935246 -0.019246764 -0.05242184 -0.013674571
000090 43 a6 63 3c a4 57 cb 3b 0e 7b 71 3d da 9b e2 bb
       0.01389462 0.006205516 0.058955245 -0.0069155516
0000a0 87 36 52 3d c7 e3 11 3d a3 df 0b bd ed 0d 0d 3c
       0.051321533 0.035617616 -0.034148823 0.008609277
0000b0 af d8 5a bc 4d b2 91 bc 02 b9 f0 3c 02 44 87 3a
       -0.013357325 -0.017785216 0.029385094 0.001031995
0000c0 df be 59 3d ea cd a5 bc 1c f2 b8 3c 06 64 31 3d
       0.053160544 -0.020239789 0.022576384 0.04330828
0000d0 22 5f 4c 3d 06 4f 3d bc 13 3d a3 3c 28 b8 67 3d
       0.049895413 -0.011554485 0.019926583 0.05657211
0000e0 3a df 78 bd 53 8d 0a 3d 2a 2c ea 3b 4b 9c 66 3d
       -0.06075976 0.033826184 0.007146378 0.056301396
0000f0 bb 2d 75 3d 75 b7 c5 3c 17 3e 70 3d 70 25 92 bc
       0.059858065 0.02413533 0.058652963 -0.017840117
000100 a1 a9 ae bc 88 e2 fb 3c db 18 30 3d f7 f4 24 3d
       -0.02132112 0.030747667 0.042992454 0.04027268
000110 6a ad 50 39 16 69 03 3d 90 a6 11 bd 33 ed 41 bd
       0.00019901028 0.03208264 -0.035559237 -0.04734535
000120 82 3b 0c bd 18 c7 51 3d 57 c2 e8 3b 37 0d ea 3c
       -0.03423644 0.05121526 0.0071032452 0.028570754
000130 2e 63 3e 3d 56 0e 05 3d 38 08 78 3c 43 ed 3e bd
       0.046481304 0.032484375 0.015138678 -0.04661299
000140 bc ec 3e 3d d7 1d 84 bd 01 4b 70 bb 29 80 1d bd
       0.046612486 -0.06451004 -0.00366658 -0.0384523
000150 ff f2 40 bd 0f df ae 3c 72 c9 3f 3d 59 fa 7e bd
       -0.04710674 0.021346597 0.046822973 -0.06225047
000160 9e b6 66 3d 7b 20 da 3c 9a dd 56 3d 4f 37 c7 bc
       0.0563265 0.026626816 0.05245743 -0.024318365
000170 33 00 5e 3d cc 27 03 bd fc 1b 4f bd 6b 8f de bc
       0.05419941 -0.032020375 -0.050563797 -0.027167996
000180 01 e5 a7 3c 08 69 b2 3c 94 52 0e 3d a2 b5 06 bd
       0.02049494 0.021778598 0.03474672 -0.032888062
000190 27 57 49 3d 61 4a 15 3d e2 5f 2d 3d 4f a6 10 3d
       0.04915538 0.036447886 0.04232777 0.035314854
0001a0 9b 35 2e 3d 2c e9 ed 3c d7 23 3b bd e4 79 57 bd
       0.04253159 0.02904185 -0.045688476 -0.05260648
0001b0 0b 16 53 3d 91 31 47 bd 0f 01 5e 3d cb e0 5f 3b
       0.051534694 -0.048631255 0.05420023 0.0034161087
0001c0 5a 59 8b bb 69 ed 74 bd 19 db 3c bd 42 8a 9b 3b
       -0.004252595 -0.059796724 -0.046107385 0.004746706
0001d0 30 4b 14 3d 59 51 69 3d 3e b8 2f 3d 1e f9 00 bd
       0.036204517 0.056962345 0.042900316 -0.031487577
0001e0 cc 2a d1 bc 7d a8 4f 3d 9a 74 41 bd e9 b6 58 3d
       -0.025533102 0.050697792 -0.04723034 0.05290881
0001f0 5a a5 bb bc 8e 16 5b 3d 05 dc 0b bd 85 7d 6b bd
       -0.022905994 0.053488307 -0.034145374 -0.05749275

linear_3.weight f4 [64, 128]
000000 0d fc 7c be d6 2f b1 bb 83 32 06 be 26 92 57 3d
       -0.24705525 -0.005407314 -0.13105206 0.052629612
000010 f8 67 10 be 51 46 8e 3d 07 be 0e 3e a8 78 c9 bc
       -0.14102161 0.069470055 0.13939677 -0.024593666
000020 41 43 5d be 09 80 89 bd 9d 75 1b bb e4 12 74 bc
       -0.21607687 -0.06713874 -0.0023721226 -0.014897082
000030 7e 51 b2 bc 6a 78 a1 3c 3c 6b f8 bd dd c2 e4 bd
       -0.021767374 0.019710738 -0.12129828 -0.1116998
000040 69 7e d0 bd 19 d4 f5 3d 4c e6 11 be ad 87 39 bd
       -0.10180361 0.12003345 -0.14248008 -0.045295406
000050 22 c3 d4 3d 79 05 5f bd 69 5f f7 bc 98 4c 4d 3d
       0.10388781 -0.05444858 -0.030196862 0.050121874
000060 06 f2 a1 ba 8c 8c e0 bd 3c b7 53 be 3f c4 05 bd
       -0.0012355454 -0.10964307 -0.20675367 -0.032657858
000070 69 52 12 bd 05 2f c9 bd 36 78 c4 bc 06 39 e3 bd
       -0.035723124 -0.098234214 -0.023983102 -0.11094861
000080 d5 e1 31 3d cc 17 9f bd 48 6b 5a be 08 dc e0 bd
       0.04342826 -0.07768211 -0.21329987 -0.10979468
000090 28 5a 94 bd 3f 71 a7 bd 6e b4 31 bd f2 ea 33 be
       -0.072437584 -0.08175897 -0.04338496 -0.17570093
0000a0 f0 99 cf bd 4b b3 99 3d 67 a7 ea bd 5e b4 ab bb
       -0.10136783 0.075049005 -0.11457711 -0.0052400073
0000b0 74 9e 88 bd d8 01 2a 3d 99 22 1e 3d 32 a6 14 be
       -0.066708475 0.041505665 0.038607214 -0.14516523
0000c0 00 63 2b be 8d 80 97 bd 5e 23 ae bc 5c f3 34 39
       -0.16736984 -0.07397566 -0.021257099 0.00017256796
0000d0 e3 49 6f 3e f4 c3 ae bd cb a1 a3 bd dc ec e5 bd
       0.2336803 -0.08533469 -0.07989844 -0.11226818
0000e0 ce 4d 50 bd bf a1 c8 bd 05 fc 1a bd ad 28 63 3b
       -0.05085545 -0.097964756 -0.037838 0.0034661696
0000f0 38 0c 1f 3e d6 e8 74 bd ca b8 ad 3d 9f 59 23 be
       0.15532005 -0.059792362 0.08482511 -0.15952156
000100 77 12 b5 3d 29 98 a7 bd 15 6e ab bd f6 d2 2b be
       0.088414125 -0.08183319 -0.08370606 -0.16779694
000110 3a c4 7f be 62 f9 96 3d 64 fb a7 3c c2 a0 60 3d
       -0.24977198 0.07371785 0.020505615 0.05484081
000120 15 fb d7 bd 4c cf 1b 3e e1 2b 79 bc 11 e9 05 3d
       -0.10545937 0.15215796 -0.015208215 0.032692973
000130 df 76 61 3d 23 c5 1e 3d 90 86 8f 3d 2a 1f 80 bd
       0.055045005 0.038762223 0.07008088 -0.06255944
000140 bf 68 2f be 80 80 2c be 49 4e 6d be 8c bb 64 be
       -0.17129801 -0.16845894 -0.23174395 -0.22337168
000150 3e a3 af 3d 73 36 a9 3d 38 f2 3a bd bb e2 a2 bd
       0.08576058 0.082623385 -0.045641154 -0.07953402
000160 a2 0d 4a 3d 3a e7 22 be dd 9b ac bd b0 5b 61 38
       0.049329408 -0.15908518 -0.08428166 5.372957e-05
000170 54 81 91 bd 88 74 66 3d e3 1f d5 3d 48 64 6f be
       -0.071047455 0.056263477 0.104064725 -0.23378098
000180 90 4a 9c bd d2 ec b9 bd bc 82 23 bd dc 88 c9 3d
       -0.07631409 -0.09078373 -0.0399196 0.09840557
000190 c4 0c 9a bc 59 15 ea bd e1 80 97 bd a9 26 4d 3d
       -0.018804915 -0.11429853 -0.073976286 0.050085697
0001a0 96 e5 ba bc 88 3d 9a 3c de 63 60 be b8 c0 d7 3d
       -0.022814553 0.018828169 -0.21913096 0.10534805
0001b0 7b 89 69 bd 7d c3 a7 3c aa ae d0 bd 78 a6 b8 bc
       -0.057015877 0.020478958 -0.101895645 -0.022540316
0001c0 3c 60 34 3c fe 80 85 3d e7 f7 98 3c 4f b7 7a be
       0.011009272 0.06518744 0.018672897 -0.24483989
0001d0 ca eb 21 bd de 9d f3 bd 03 2d ce 3c 9f a4 ec bd
       -0.039531507 -0.11895345 0.025167948 -0.115548365
0001e0 15 cc 9b 3d dc cf 07 3d c2 b0 97 bd 73 6e 0a be
       0.07607285 0.033157215 -0.07406761 -0.13518696
0001f0 8d 47 84 3b 71 2b f5 bd 73 85 cd 3c 37 b7 9b bd
       0.00403685 -0.119711764 0.025088048 -0.07603305
000200 dd 7d b8 bd 9e f9 64 3d 39 4a 9e bd 3a 96 9e 3d
       -0.090083815 0.055902116 -0.077290006 0.07743497
000210 08 db 0b 3e c7 ce 00 be 38 f8 2b 3d 7d c4 82 3d
       0.13657773 -0.1257888 0.041984767 0.063851334
000220 3c 9d 32 3d 89 29 99 bd 44 f3 09 3e fb 3f 88 bd
       0.04360698 -0.07478625 0.13471705 -0.06652828
000230 29 c7 99 3d 60 ad 3b bd 2a 5f 2f 3d 8e bb 95 3d
       0.0750869 -0.04581964 0.042815365 0.07311164
000240 4d 41 1f 3e c6 c7 05 be 1a aa 7d 3d 07 95 0e bd
       0.15552254 -0.13064489 0.0619298 -0.034810092
000250 28 93 69 bd 5e 0e 36 3e 73 22 ef bc a0 bd 68 3c
       -0.057025105 0.17778918 -0.029191231 0.014205366
000260 c8 a9 31 3b 04 a5 20 bd c4 b8 9a 3d f1 9a 83 bc
       0.0027109254 -0.03921987 0.075547725 -0.016065093
000270 e1 23 f8 3d 5c 23 0f bd a0 cb cb bd cf c9 a2 3c
       0.12116218 -0.03494583 -0.09950948 0.01987162
000280 7c db 3e bd 93 29 16 3d 62 7d 05 3b 5a fb 76 3e
       -0.046596035 0.036660742 0.0020368923 0.2411932
000290 17 23 3e 3e 1b 4c 9a 3d 41 66 98 3d 2d 34 0a 3e
       0.18568073 0.07534047 0.074413784 0.13496466
0002a0 45 f9 42 bd 6c a5 2b bd 7f 7e b8 3b 04 a2 b9 3a
       -0.047601003 -0.041905805 0.005630314 0.0014162664
0002b0 4f 3c a1 3d 54 84 ef bc 12 4e 82 3d a5 8c 69 3d
       0.07872831 -0.029237904 0.06362547 0.057018895
0002c0 a5 eb 07 3d e7 48 36 3e 53 41 c2 3b b5 76 da bc
       0.033183713 0.17801248 0.0059281974 -0.026667932
0002d0 88 ec c0 bb 48 27 52 bc 2e 3e 7e bd d2 38 82 3d
       -0.0058875717 -0.012826748 -0.062071018 0.06358494
0002e0 8b 10 37 bd c5 76 e6 3d 12 75 b7 3d c3 14 19 3d
       -0.04469351 0.11253122 0.08957876 0.037373316
0002f0 11 95 65 bc a9 df 08 3e c5 56 8a 3d c4 c1 c0 bd
       -0.014012591 0.1336657 0.06754831 -0.09411958
000300 7d 21 24 bd 50 c7 49 3c 33 3c b4 3d 3e 29 d7 3d
       -0.040071 0.012315586 0.088005446 0.10505913
000310 e3 73 a9 bd e0 01 66 3c 52 f0 b8 3d 73 b6 4b bc
       -0.08274057 0.014038533 0.090302125 -0.012433636
000320 96 bc 61 3d f7 9f 03 3d e8 6b eb 3d b5 ae 59 3c
       0.05511149 0.032134976 0.11495191 0.013286282
000330 7b 5a 83 bb e1 4e 0a bd eb 4c 41 bd 4a 3a 8a 3d
       -0.004008589 -0.03376663 -0.047192495 0.06749399
000340 07 51 60 bd 65 ab 24 3d be 4f 04 be 0c c5 6c bd
       -0.054764774 0.040202517 -0.12921044 -0.057805106
000350 3e bf 90 bd 75 df 18 3c 19 71 8e 3d f2 36 7f bd
       -0.070677266 0.00933062 0.069551654 -0.06230826
000360 56 2b 1a 3d de 58 31 3d b1 cc e2 bb 17 51 81 3d
       0.037638985 0.04329764 -0.006921374 0.06314295
000370 03 5c 5d 3d 12 82 8e bd f4 c0 1b 3c cb d1 1e 3e
       0.054042827 -0.06958403 0.009506453 0.15509717
000380 61 21 0e 3e 1f d2 4d 3b 10 4b 41 bd 51 01 1d bd
       0.1387992 0.003140576 -0.047190726 -0.038331334
000390 7c ae d9 bd 95 a9 97 3d 5c a8 e2 3d 2d f4 d4 3c
       -0.106289834 0.07405392 0.11067268 0.025995338
0003a0 d8 3a cc 3d 13 93 00 bd 07 5f ce bd 79 c3 ad bd
       0.09972161 -0.03139026 -0.10076719 -0.08484549
0003b0 67 eb a4 3e 3a 4e 55 3d da 68 e3 bc 02 3d a3 3d
       0.32210848 0.052076556 -0.027759958 0.07970621
0003c0 34 2d 66 bc 82 b6 2e bd 42 0d 51 bd 96 55 84 3e
       -0.014048863 -0.04265452 -0.051038034 0.25846547
0003d0 14 a0 53 3c f9 10 d0 3c b0 f4 b1 3d 30 49 36 bd
       0.012916584 0.025398718 0.086892486 -0.04450339
0003e0 60 d4 6d bd 73 ab a3 bd b3 21 41 bc cc fc aa 3d
       -0.058063865 -0.07991686 -0.01178782 0.083489984
0003f0 f8 b5 8a bd 01 a3 2b 3d 2c 88 20 3d 43 ab aa bc
       -0.06772989 0.0419035 0.039192364 -0.020833617

linear_3.bias f4 [64]
000000 f8 cf aa 3d 20 2a 3b 3c 3b 8e ef bc 68 8f 0d bd
       0.08340448 0.011423618 -0.029242625 -0.03456059
000010 38 7a 68 bc e0 59 97 3d d4 ea 1b 3a d7 59 a7 3c
       -0.0141892955 0.07390189 0.0005947773 0.020428581
000020 bb 92 7b 3d 53 ee 90 bd 71 c5 48 3d 3f 74 c8 3c
       0.06141923 -0.07076707 0.04901642 0.024469493
000030 7c 7b ae 3d 5a 27 28 3c 8c 68 78 bd 5b 67 29 bb
       0.085196465 0.010263288 -0.06064658 -0.0025848958
000040 36 77 89 3b 35 25 17 3d 73 b9 83 bd 0f b6 9f bd
       0.0041951193 0.036900718 -0.06431856 -0.07798397
000050 6b 85 a0 3d 09 0a ae 3c 5f e2 6f 3d a0 f7 b2 bd
       0.078379475 0.02124502 0.058565494 -0.08738637
000060 d0 c4 a2 bd 27 8f 63 3d a8 8c 86 3d cf 89 b1 bb
       -0.07947695 0.055556443 0.06569797 -0.0054180394
000070 c9 f1 ac 3d 17 47 ac bd 92 26 a2 bd fb 25 6e 3d
       0.08444554 -0.08411997 -0.07917513 0.05814169
000080 aa d4 d7 bc a0 53 8e bd ad 9e a5 bd e7 41 89 bd
       -0.026346523 -0.06949544 -0.08086906 -0.06702023
000090 bd 37 1e 3c 78 5b 1e 3d 8b fa 1a 3d dd a8 2e bd
       0.009656844 0.03866145 0.037836593 -0.04264151
0000a0 41 85 98 bd 18 85 40 bd fb c1 9c 3d ee 95 d9 3c
       -0.07447291 -0.047001928 0.07654186 0.02656075
0000b0 66 8c 9b 3d cc 15 68 3d 30 76 94 bc 1c 4b bc bc
       0.07595138 0.056661412 -0.018122762 -0.022985034
0000c0 5f 0d 95 3d 66 80 b6 3b 16 54 76 bd 4b ac 97 bd
       0.07277941 0.0055695055 -0.060138784 -0.07405909
0000d0 62 5f a4 3d 85 50 f2 bc 6b ed a3 bd 57 14 88 3d
       0.08026005 -0.02957941 -0.08004268 0.066445045
0000e0 6d 9f 70 3d ce 12 25 3c ba 3d a0 bd 53 cd ed 3c
       0.05874579 0.010075284 -0.078242734 0.02902857
0000f0 54 74 97 3d c0 36 9d bd 29 f8 45 3d 99 c5 12 3d
       0.07395235 -0.07676458 0.048332367 0.035832975

linear_4.weight f4 [2, 64]
000000 fa 86 5c 3e a3 34 66 be 2f a5 83 3e 88 dd f8 be
       0.21535864 -0.22481017 0.25711963 -0.48606515
000010 99 9d a8 3e fc fd 87 be 00 1e a4 3e 5f e7 8b 3e
       0.32932737 -0.26560962 0.32054138 0.2732496
000020 7b e7 b2 3e 84 5b b1 3e ae 72 71 3e 34 9a 4e be
       0.3494223 0.34640133 0.23578903 -0.20176011
000030 d3 64 cb bd a9 24 ea 3d 26 70 07 3e 75 5a 11 3e
       -0.0993134 0.114327736 0.13226375 0.14194663
000040 82 49 fb 3c 99 e1 95 3e 67 3d 29 be 5a 62 6c be
       0.0306747 0.2927368 -0.1652733 -0.23084393
000050 35 2a a7 be 9b 1a 9c be 39 05 a3 3e f5 f8 b5 3e
       -0.3264939 -0.30489048 0.31839922 0.35541502
000060 ea 18 7e 3e 97 ac 92 3d 21 eb 5b 3e bf 93 d6 3e
       0.24814191 0.07161825 0.21476413 0.41909596
000070 90 7f bb 3e 59 6a 8f 3e 12 76 f2 3d c1 42 8f 3e
       0.3662076 0.28010824 0.118389264 0.27980617
000080 fe 8b 31 3e f9 32 21 3c 39 10 be bd 63 21 7c 3e
       0.17338559 0.009838813 -0.09280438 0.24622111
000090 a6 13 70 be 55 ef 7c 3e af d2 84 3e 34 ae 86 3e
       -0.23444995 0.24700673 0.2594199 0.2630478
0000a0 57 c8 88 3e 7e b4 ad 3e f0 ca a0 3e 3a 69 7f 3e
       0.26715347 0.33926767 0.3140483 0.24942484
0000b0 92 ed 8f 3e a0 b8 26 be 64 66 80 3e 2c 32 4f 3e
       0.2811094 -0.16281366 0.25078118 0.20233983
0000c0 58 55 b7 be 98 27 84 3e 6d 58 59 3e f3 bb b9 3d
       -0.358073 0.25811458 0.21225138 0.090690516
0000d0 20 85 a4 3d cb c3 62 3e ed e4 15 3e 6a 27 9b 3e
       0.08033204 0.22145002 0.1463811 0.30303508
0000e0 c6 88 83 3e 4b 30 89 3d 62 3f 68 3e 48 b4 c8 3e
       0.25690287 0.06698664 0.22680429 0.39200044
0000f0 30 9d b5 bd 18 5c b0 3e 78 7c cc 3e 02 99 68 3d
       -0.08867872 0.34445262 0.39938712 0.056786545
000100 2a 73 d7 bc 63 33 4e bd 66 37 8c bd 85 19 54 bd
       -0.026300032 -0.050341975 -0.06846504 -0.05178215
000110 9f df 21 bd 41 dc 68 3d 73 99 94 3d e9 21 44 bd
       -0.039519902 0.056850675 0.072558306 -0.0478839
000120 50 c3 e4 3d 49 e3 83 3d e4 69 98 bb ab b2 95 bd
       0.111700654 0.064398356 -0.004651295 -0.07309469
000130 17 7c 4d 3d 63 1f 0f 3d 7e f3 d7 3d ac 21 fd bd
       0.05016717 0.034942042 0.10544489 -0.12359938
000140 5f 33 14 be 83 59 2d bc a9 e9 c4 bd f5 db ea bc
       -0.14472722 -0.010580423 -0.0961488 -0.028669337
000150 5c bb 87 3d b3 e6 cb bd 36 0a e3 3c d2 fa 6e 3b
       0.06627533 -0.09956112 0.02771483 0.0036465419
000160 e5 fb f8 bd 85 82 de bd 1d ae 9a bd b2 40 a7 bd
       -0.1215742 -0.108647384 -0.07552741 -0.081666365
000170 65 09 79 3d 41 ab d5 bd 18 64 08 be d5 e2 a2 3d
       0.060799975 -0.10433055 -0.13319433 0.07953421
000180 4e f4 81 3d 8b 26 1a 3c dd a2 12 bd e9 9b 11 bc
       0.063454255 0.009408603 -0.03579985 -0.0088872695
000190 e5 3b 27 bc b9 ba 8d 3d 84 da b8 bd 7f fb 42 3c
       -0.010207151 0.0692038 -0.090260535 0.011900782
0001a0 08 28 1e be 5d cb e5 bc 24 bf ce bd d1 fa 9d bd
       -0.15444958 -0.028051073 -0.10095051 -0.07713855
0001b0 df f4 d8 3a 84 eb 92 bb 70 de 03 be 1b b1 19 be
       0.001655247 -0.004483642 -0.12877822 -0.15008967
0001c0 c2 28 7a bd dd 81 1e bc 5f 2e 45 bd ea c5 bd bc
       -0.061074026 -0.0096745165 -0.048139926 -0.023165662
0001d0 d5 e6 ff 3c dc 32 b3 3d bc a8 73 bd 5e 6f da 3d
       0.031237999 0.08749935 -0.05948709 0.10665773
0001e0 64 57 c0 3d e4 d2 d8 bd 63 11 07 be ba db 18 3d
       0.093916684 -0.10587099 -0.13190226 0.037318923
0001f0 c7 b1 0a bd 90 87 2f bd 12 b1 86 bd c9 bf 47 3d
       -0.033860948 -0.04285389 -0.06576742 0.048766885

linear_4.bias f4 [2]
000000 c9 12 37 3e 09 0a 14 bd
       0.1787826 -0.036142383

batchnorm_1.weight f4 [256]
000000 1c ba 47 3f 25 cb 4c 3f d3 04 4d 3f f8 63 2a 3f
       0.78018355 0.79997474 0.80085486 0.6655879
000010 f9 36 72 3f 68 fd 50 3f 1a 55 2a 3f 95 b2 4d 3f
       0.9461513 0.8163667 0.66536105 0.8035062
000020 31 e0 4c 3f e5 72 5b 3f 83 30 36 3f 2f b2 45 3f
       0.8002959 0.8572219 0.71167773 0.7722501
000030 03 9f 52 3f a4 d0 63 3f ce 24 5a 3f a0 ba 5c 3f
       0.8227388 0.88990235 0.8521241 0.8622227
000040 9e c2 5b 3f d9 5b 4a 3f 43 9c 54 3f 5b b0 6d 3f
       0.8584384 0.790464 0.83050936 0.9284722
000050 f0 93 37 3f ad 70 17 3f b1 a8 46 3f 3a 71 94 3f
       0.7171011 0.59156305 0.7760115 1.1597054
000060 24 a4 67 3f f6 db 62 3f d7 23 1f 3f 6f 69 75 3f
       0.90484834 0.88616884 0.6216406 0.95864004
000070 ec e1 9a 3f 8a 24 60 3f 92 fc 35 3f 0c 8c 41 3f
       1.2100196 0.87555754 0.71088517 0.7560432
000080 de 8e 79 3f ca 17 6b 3f 2d 9c 35 3f 96 2c 2c 3f
       0.97483623 0.91833174 0.7094143 0.6725553
000090 b2 3d 18 3f 0e 87 36 3f 36 a7 5f 3f 8e 8a 60 3f
       0.5946914 0.7129983 0.8736452 0.8771142
0000a0 0e 50 50 3f e7 5b 40 3f 64 ba 53 3f 6c 48 56 3f
       0.81372154 0.7514023 0.82706285 0.83704257
0000b0 8d 5f 3c 3f 9c f7 41 3f fc a0 57 3f d0 20 63 3f
       0.735833 0.75768447 0.8423002 0.8872194
0000c0 8b 4b 8e 3f f4 e4 3e 3f 97 58 69 3f 70 1f 50 3f
       1.1116804 0.74568105 0.911508 0.8129797
0000d0 a2 80 2c 3f 9d 2a 46 3f f2 4c 3d 3f 06 fa 51 3f
       0.6738378 0.7740877 0.73945534 0.8202213
0000e0 c8 28 88 3f 29 b3 67 3f 77 5c 64 3f 8c be 6a 3f
       1.0637445 0.9050775 0.8920359 0.91697
0000f0 ce 9a 78 3f ce a3 89 3f ac 20 3a 3f 35 f8 71 3f
       0.97111213 1.0753114 0.72706103 0.9451936
000100 66 49 72 3f 22 c9 69 3f 22 21 52 3f 31 7a 46 3f
       0.9464325 0.9132253 0.82081807 0.775302
000110 5d d8 4a 3f bc aa 58 3f 39 d7 57 3f c5 bc 39 3f
       0.79236394 0.8463552 0.8431278 0.72553664
000120 1e c6 3a 3f bc 82 8d 3f 1c e5 35 3f 4e 67 87 3f
       0.7295855 1.1055522 0.7105272 1.0578401
000130 97 4c 62 3f f0 40 4e 3f 63 0f 3f 3f 7b 01 61 3f
       0.88398117 0.80567837 0.74632853 0.87892884
000140 8a 10 43 3f 99 75 3f 3f 3e 66 14 3f a4 07 3a 3f
       0.7619711 0.74788815 0.5796851 0.7266791
000150 27 39 38 3f 51 77 6e 3f e6 a7 6e 3f c4 45 3f 3f
       0.7196221 0.9315081 0.9322494 0.7471583
000160 f4 39 30 3f d7 4b 2e 3f dc c4 54 3f 98 a9 4e 3f
       0.6883843 0.6808447 0.83112884 0.8072753
000170 4a c0 3a 3f ee 03 95 3f dd 9b 44 3f c3 59 4c 3f
       0.7294966 1.1641824 0.7680033 0.79824466
000180 54 2a 5c 3f b4 69 67 3f b8 52 36 3f b4 70 6f 3f
       0.8600209 0.90395665 0.7121997 0.93531346
000190 6f 87 30 3f b0 47 89 3f ac 1c 58 3f ea dd 41 3f
       0.68956655 1.0725002 0.8441875 0.7572924
0001a0 53 b6 4b 3f 13 8a 50 3f 5c b3 3f 3f f6 44 64 3f
       0.7957508 0.81460685 0.74883056 0.89167726
0001b0 e5 84 3e 3f 21 63 59 3f 99 5b 66 3f e3 cf 69 3f
       0.7442153 0.84916884 0.89983517 0.91332835
0001c0 24 73 69 3f b1 89 7e 3f db dd 4e 3f 2e 8d 62 3f
       0.91191316 0.9942885 0.80807275 0.88496673
0001d0 a3 c6 46 3f 48 20 6a 3f c0 28 6a 3f 50 8b 4e 3f
       0.77646846 0.9145551 0.9146843 0.80681324
0001e0 be 68 67 3f fd 75 4d 3f 86 a8 61 3f 8a e1 66 3f
       0.903942 0.8025816 0.8814777 0.90187895
0001f0 b9 c6 71 3f c8 0e 44 3f 68 06 82 3f 9a bb 4f 3f
       0.9444385 0.76585054 1.0158205 0.8114563
000200 bc f6 54 3f 44 9e 67 3f 6b e3 58 3f 02 ec 41 3f
       0.83188987 0.9047587 0.8472201 0.75750744
000210 2c f5 46 3f dc e8 79 3f 9d ad 4b 3f b1 ee 51 3f
       0.7771785 0.9762094 0.7956179 0.8200484
000220 24 de 4e 3f 94 82 61 3f 6f 4a 5d 3f 74 09 52 3f
       0.8080771 0.8808987 0.864417 0.82045674
000230 a9 4d 45 3f 1a c4 5b 3f 59 cb 88 3f ce e3 54 3f
       0.77071625 0.858461 1.0687057 0.831601
000240 bf 77 8e 3f 1c 34 81 3f 6f 89 4d 3f 5a bd 75 3f
       1.1130294 1.0094028 0.8028783 0.9599205
000250 61 ea 52 3f 83 66 49 3f a7 df 49 3f 4e d8 68 3f
       0.82388884 0.78672045 0.7885689 0.90955055
000260 24 2e 4b 3f 7d 25 4d 3f 00 6e 19 3f b7 32 6e 3f
       0.7936728 0.8013533 0.5993347 0.93046135
000270 a7 f2 b1 3f 74 3f 83 3f c9 4a 3b 3f c1 9c 38 3f
       1.3902177 1.0253739 0.7316099 0.7211419
000280 7b 57 a2 3f 24 d1 1f 3f 38 1d 57 3f f7 11 5b 3f
       1.2682947 0.624285 0.8402896 0.8557429
000290 48 74 67 3f fa 19 81 3f fb 8b 5f 3f 0c 79 82 3f
       0.90411806 1.0086052 0.8732297 1.019319
0002a0 c0 f5 5e 3f 71 15 73 3f f4 e1 7f 3f 1a bc 22 3f
       0.87093735 0.9495459 0.9995415 0.6356827
0002b0 1d 72 5c 3f d8 00 5a 3f a2 0e 60 3f 35 60 6f 3f
       0.86111623 0.8515754 0.8752233 0.93506175
0002c0 1c cf 5d 3f 00 73 44 3f b3 60 6d 3f 18 2b 5d 3f
       0.8664415 0.76737976 0.92725676 0.8639388
0002d0 3f 61 6a 3f 94 32 4b 3f 3a d1 51 3f 7b 74 33 3f
       0.91554636 0.7937405 0.8195988 0.7009961
0002e0 4d b5 56 3f 16 d4 2c 3f cd 4b 68 3f 23 e5 87 3f
       0.83870393 0.6751112 0.9074066 1.0616802
0002f0 6f 82 57 3f ba ed 64 3f a6 60 27 3f 12 af 30 3f
       0.841834 0.8942524 0.6538185 0.69017136
000300 75 4b 67 3f ef df 60 3f 01 d2 7b 3f c9 38 74 3f
       0.90349513 0.87841696 0.98367316 0.9539915
000310 66 f2 86 3f 96 fd 39 3f 0f 76 52 3f f7 07 58 3f
       1.0542724 0.72652566 0.82211393 0.84387153
000320 a2 7c 56 3f f1 70 4f 3f 1b 25 47 3f a9 52 49 3f
       0.83783925 0.8103171 0.77790993 0.78641754
000330 40 64 6f 3f 14 44 5d 3f 23 1f 40 3f 1b 3d 67 3f
       0.93512344 0.86432004 0.7504751 0.90327615
000340 57 63 89 3f 55 f6 5a 3f 3e 12 3c 3f 8d 88 5b 3f
       1.0733441 0.8553212 0.73465335 0.85755235
000350 d9 5e 7d 3f 22 df 5f 3f ff 80 29 3f ff 19 5c 3f
       0.9897285 0.8744985 0.6621246 0.85977167
000360 18 1d 5f 3f 17 48 7a 3f 26 42 66 3f d0 8f 3f 3f
       0.8715377 0.9776625 0.89944685 0.74828815
000370 6d 25 35 3f 41 fd 5c 3f 6d e2 43 3f 6e f7 6c 3f
       0.7076023 0.86323935 0.76517373 0.9256505
000380 0a 42 5e 3f 67 93 4f 3f 6a 13 54 3f 45 59 b4 3f
       0.8681952 0.81084293 0.82842124 1.4089743
000390 c1 ff 4e 3f ff 21 34 3f 1c 93 4f 3f 7e e8 38 3f
       0.80859 0.70364374 0.81083846 0.72229755
0003a0 b8 a7 68 3f ca e8 40 3f 89 9b 31 3f 27 96 76 3f
       0.9088092 0.7535521 0.6937795 0.96322864
0003b0 97 82 89 3f 34 ea 2c 3f 20 fe 8b 3f fd 03 4a 3f
       1.0742978 0.67544866 1.0936928 0.78912336
0003c0 94 3a 50 3f 98 d1 3d 3f 98 dc 93 3f a3 50 56 3f
       0.81339383 0.7414794 1.1551695 0.8371679
0003d0 ca 10 2d 3f 41 3b 65 3f 78 a5 36 3f 63 42 79 3f
       0.67603743 0.8954354 0.71346235 0.97366923
0003e0 b9 3b 56 3f 6b 5a 7d 3f 52 10 6c 3f 1e 1a 68 3f
       0.8368488 0.9896609 0.922124 0.9066485
0003f0 60 6d 6b 3f e7 a2 1f 3f 75 79 1d 3f 36 f7 3f 3f
       0.9196377 0.62357944 0.61513454 0.7498659
